data/ddpg-2019-03-23-checkpoint-DDPG.critic.pth (torch_old, 542628 bytes, 5 tensors)

fcs1.weight f4 [400, 33]
00000000: 807e 3f39 10d2 bdb7 93b4 53b8 1c80 20b9
00000010: 6e00 9d38 f0fc a334 16ef 1a38 0466 3539
00000020: 50a5 c7b8 57c2 81b8 519c d239 7f41 5a39
00000030: 4c83 7c39 4f01 d4b8 9bfe 73b8 8857 9b39
00000040: ee5e aab8 1147 9938 0451 a138 906a 2138
00000050: 93b3 c939 0c34 0fb9 9ed6 e838 c765 0b3a
00000060: 5f21 05b9 6ba7 f539 f38a 52b9 0166 9c38
00000070: 33a2 5439 f5e4 9ba9 8368 b6b8 6606 3ca9
00000080: 5669 8a37 f2dd b135 2d3f b0b4 dce1 0336
00000090: 7e62 4ab5 2063 fdb4 5f0d 1eb4 6f16 98b4
000000a0: 5b78 44b4 8a1e 4e34 bacb 9cb5 fa17 6135
000000b0: 0ae6 8b34 92aa 6735 302f 5234 a71d cfb4
000000c0: e025 4f36 8b4c 6fb5 0e00 ec34 8ccd 1435
000000d0: eeb2 15b5 d60c 2f36 30ec 6cb5 abde 2035
000000e0: 35d8 b136 4cf5 7035 292b b635 fc69 6535
000000f0: 8fce 0c34 c0ae 3536 5096 8126 cee3 2eb4
00000100: ec5b 21ab 6277 3235 403a caba 39d0 45ba
00000110: 5c81 9c3a 4934 5239 aebf 8db8 940e 19ba
00000120: e6d9 433a fe83 943a 4421 3239 e247 6839
00000130: 3c2b cbba 2cb3 58b9 9912 cb3a 8950 4739
00000140: 1541 2fbc 7395 a23a c585 cf39 4b26 acb9
00000150: a34b bcba 7be9 a439 3aef 543a 192f 91ba
00000160: 278e 14bb 4fda 6c3a 8191 efb8 fea1 ac3a
00000170: c687 7bba f078 a939 e9f8 8fba 66fe 7629
00000180: 563f b0b9 b2e0 232a 80c3 dc38 fe22 dd34
00000190: d4a7 0b36 7827 ab33 c4c2 fa34 93ef 03b5
000001a0: 5a83 cb35 a3d8 9a36 6edc 4637 9166 b8b6
000001b0: 4bc5 01b7 d801 c0b5 2705 d636 6716 9637
000001c0: 339e 86b6 ea14 a238 ca52 5b37 6d8d 6236
000001d0: 3415 a836 1ead 4bb5 2e6f 83b6 218a d637
000001e0: 30cd 9bb7 fa9a 93b6 ad3f 2f38 624f 9db7
000001f0: 1b2d 1e38 f48b f737 b263 6237 2463 9d36
00000200: 4c81 0729 71e2 6cb7 b1b0 bc28 282c 6233
00000210: 09b5 7ea9 0ccc 64aa f00e a0a9 8c10 b3a8
00000220: d213 25aa c996 7328 0f5c 0bab 3c04 3a29
00000230: 0012 9526 794b 46aa cbd0 0a2a 3e04 7a2a
00000240: da48 b02a 103a 85aa 345d fc29 4e5d 64aa
00000250: d7f2 b728 9b67 cbaa aa8b 6ca8 3705 00aa
00000260: 7bb4 a52a 47bc d8aa d942 79aa 7f6b bd2a
00000270: 326a 6bab fe03 45aa 62cd 0caa 87d1 84aa
00000280: 1039 0f2a 6426 45a9 8078 dfa9 6714 e329
00000290: 37b9 de2a 37c6 e7b9 facb 70b9 90d0 c539
000002a0: 312b cc38 df9f cfb7 5087 e5b7 3c0f a638
000002b0: 1191 1539 63f9 b6b8 dd39 3538 0484 26ba
000002c0: 8625 2db9 a4e9 833a 962f f4b8 24c4 84bb
000002d0: e6a0 db39 d473 e538 bb3d a738 4cdd 55b9
000002e0: 77aa 3f38 9828 9a38 29f0 23ba 2fb5 21ba
000002f0: b8f4 ee39 5e72 48ba 43d5 b83a f0ab 3539
00000300: c929 7c39 635c d4b8 e5b6 ad2a 56bf 6bb9
00000310: 27e9 36a9 6c64 9737 2f06 21ab ffd5 1e2a
00000320: c3ea 452a 1c6f bb28 40ef 7aa9 400d 30a9
00000330: e725 6c29 8c0d f42a 14ad 3528 33bc b2aa
00000340: eaac f9a8 4037 aca9 ea1c 93a9 ec68 61aa
00000350: 46ab 58aa c65e 452a bc35 42aa 06cc 21aa
00000360: 7174 45a9 f4b6 9aa9 52d1 742a 1bd1 9f2a
00000370: 1f68 c3a8 d082 84aa d724 60a9 aa24 9ca9
00000380: 0a9e be29 6291 ebaa 2564 26aa 178d ba29
00000390: 7e18 192a 4775 552a 71ec d7a9 3ea0 30a9
000003a0: 020d 37a9 1894 f4a9 6043 3caa 8d8b fe2a
000003b0: ab00 aca9 38d4 f8a9 b2ad 60aa 9e66 8e29
000003c0: b02f 98a7 f644 3729 8152 4baa 30c8 1ba8
000003d0: 86b3 8baa 54d9 c02a e5ba c4aa c846 6c28
000003e0: 5615 8e29 fc85 7e29 b568 88a9 6481 34a9
000003f0: 6253 20aa 1d40 69aa 1e76 7f2a 4ca1 ff2a
0.00018262304 -2.2628374e-05 -5.0474493e-05 -0.00015306514 7.4864234e-05 3.0545152e-07 3.6939127e-05 0.00017299509
-9.519851e-05 -6.187398e-05 0.00040170786 0.000208145 0.00024081505 -0.000101091915 -5.8172835e-05 0.0002962912
-8.123914e-05 7.308846e-05 7.6921686e-05 3.8484635e-05 0.000384715 -0.00013656932 0.00011102598 0.0005317595
-0.000126963 0.00046854778 -0.00020078923 7.4576594e-05 0.0002027832 -6.9231005e-14 -8.697903e-05 -4.1749935e-14
1.6499933e-05 1.3252122e-06 -3.282852e-07 1.9651989e-06 -7.539419e-07 -4.7197045e-07 -1.4719761e-07 -2.832853e-07
-1.8297708e-07 1.9196355e-07 -1.1682198e-06 8.385392e-07 2.6058143e-07 8.630242e-07 1.9574941e-07 -3.857833e-07
3.086745e-06 -8.914582e-07 4.3958465e-07 5.5433406e-07 -5.57672e-07 2.6084504e-06 -8.826055e-07 5.992867e-07
5.300181e-06 8.976392e-07 1.3572618e-06 8.5463375e-07 1.3113662e-07 2.707282e-06 8.991915e-16 -1.6287888e-07
-5.732626e-13 6.648389e-07 -0.0015428737 -0.0007545981 0.0011940408 0.00020046638 -6.759107e-05 -0.0005838659
0.0007471129 0.0011330841 0.00016987795 0.00022152023 -0.0015500556 -0.00020666112 0.0015493213 0.0001900812
-0.010696669 0.0012404158 0.00039581783 -0.00032834927 -0.0014365803 0.00031454474 0.0008122806 -0.0011076658
-0.0022667737 0.0009035216 -0.0001142351 0.0013170836 -0.0009595122 0.00032324297 -0.0010984215 5.4843628e-14
-0.00033616525 1.4555265e-13 0.00010526832 4.1189918e-07 2.0810303e-06 7.969987e-08 4.670784e-07 -4.914993e-07
1.5162907e-06 4.6147775e-06 1.1853042e-05 -5.4955676e-06 -7.734935e-06 -1.4305651e-06 6.378297e-06 1.7891825e-05
-4.011928e-06 7.7286575e-05 1.3072693e-05 3.3758945e-06 5.0092585e-06 -7.587531e-07 -3.9170473e-06 2.557511e-05
-1.8572988e-05 -4.398983e-06 4.1782554e-05 -1.8752824e-05 3.7712143e-05 2.9509865e-05 1.3493862e-05 4.690506e-06
3.008817e-14 -1.4119419e-05 2.094882e-14 5.2659885e-08 -5.6556353e-14 -2.0321261e-13 -7.1080186e-14 -1.9880168e-14
-1.466182e-13 1.3521906e-14 -4.9510477e-13 4.130397e-14 1.0343831e-15 -1.7612118e-13 1.2329302e-13 2.2205932e-13
3.131443e-13 -2.3665835e-13 1.1207216e-13 -2.028284e-13 2.0422396e-14 -3.6131935e-13 -1.31309165e-14 -1.1370493e-13
2.943512e-13 -3.8499951e-13 -2.2138835e-13 3.3647735e-13 -8.3636147e-13 -1.74985e-13 -1.2505754e-13 -2.35933e-13
1.2720749e-13 -4.3776086e-14 -9.924093e-14 1.0084364e-13 3.956364e-13 -0.00044207435 -0.00022964171 0.0003773016
9.735523e-05 -2.4750769e-05 -2.7361937e-05 7.9183344e-05 0.00014263789 -8.724888e-05 4.3207652e-05 -0.00063520693
-0.00016512544 0.0010064137 -0.0001164369 -0.004051702 0.00041890814 0.000109411456 7.974679e-05 -0.00020395702
4.5696706e-05 7.3508534e-05 -0.0006253743 -0.0006168661 0.00045577227 -0.00076464366 0.0014101643 0.00017325557
0.00024048159 -0.00010126156 3.0857882e-13 -0.00022482625 -4.0614346e-14 1.8047365e-05 -5.720727e-13 1.4107464e-13
1.7578564e-13 2.0809357e-14 -5.5718668e-14 -3.9091343e-14 5.2435402e-14 4.3352507e-13 1.0085049e-14 -3.174974e-13
-2.7719543e-14 -7.647919e-14 -6.533127e-14 -2.0020417e-13 -1.9244076e-13 1.7529996e-13 -1.7249304e-13 -1.4370457e-13
-4.3843784e-14 -6.870711e-14 2.1744176e-13 2.838917e-13 -2.1694504e-14 -2.353868e-13 -4.9769945e-14 -6.934152e-14
8.4651104e-14 -4.1845265e-13 -1.4778506e-13 8.2845345e-14 1.3597627e-13 1.8958889e-13 -9.588934e-14 -3.921884e-14
-4.0645445e-14 -1.0861467e-13 -1.672113e-13 4.5216297e-13 -7.63845e-14 -1.10502265e-13 -1.9955459e-13 6.323868e-14
-4.2240178e-15 4.0693977e-14 -1.8058646e-13 -8.647637e-15 -2.481593e-13 3.4256853e-13 -3.4946278e-13 1.311598e-14
6.309768e-14 5.6515543e-14 -6.057777e-14 -4.0080257e-14 -1.4239784e-13 -2.0716801e-13 2.268953e-13 4.5409022e-13

fcs1.bias f4 [400]
00000000: 283a 53b8 acd5 90b4 05e3 0ab9 ca3f 78b7
00000010: d783 d0b7 4a91 ffb9 ca58 00b8 d87c 30b5
00000020: 38aa d8b4 074e 8cb6 34d7 90b6 b7bd 9eb6
00000030: 2d06 3839 5678 cbb6 8fe8 22b7 c0d8 1bb9
00000040: 3710 e2b7 88e2 4fb8 b3bc e8b8 f47b e8b7
00000050: 7726 31b9 e543 cab9 60b8 17b7 5aa3 65b8
00000060: f10e 82b8 dc51 78b6 cf17 e4b8 37db 1f3a
00000070: d50b 0b39 a80d 0bb6 1537 d1b7 6b6b 01b8
00000080: deeb 5739 3889 b4b8 1376 ccb6 2c79 48b5
00000090: d50b 45b7 35d0 1c39 694f 1cb9 8a11 a8b8
000000a0: db3e ba38 70e7 9cb7 2b0c 6eb7 5ccd 87b9
000000b0: 0266 b2b5 be20 80b9 78ed 82b9 8156 25b8
000000c0: 0756 99b7 742f ecb2 4c4c 8ab8 1878 283a
000000d0: 3449 ab36 bed3 0eba 7589 d6b8 7d4c 7639
000000e0: d1af a0b8 09af 2cb5 5545 9fb9 5825 27b5
000000f0: 01e5 b9b8 027b 0db8 a339 9537 3276 deb6
00000100: 6551 f5b7 564f 12b6 b5bf 3336 7820 60b6
00000110: 6eaa 4eb3 1ad9 04b5 accc 3bb6 38e3 f7b6
00000120: a565 71b6 3611 b9b9 7fa2 0839 d863 1737
00000130: 3355 f4b3 64bd bab8 e18d 0539 e28b ac37
00000140: 45f2 28b8 a1fc 27ba 4e4b 4bb8 25d8 8eb8
00000150: 76f1 34b7 c7c9 ba38 6bac d9b9 bf5c 3cb8
00000160: b3eb 4ab7 2054 1bb8 2e66 b7b8 62bf 85b6
00000170: 69a3 9437 20ec 1439 ff3d 21b7 30c8 04b6
00000180: 3766 85ba 457f d239 a17d 76b8 d60e 2639
00000190: e85f aab7 c00a dfb9 d484 2832 6376 f1b8
000001a0: ebad c137 cc66 483a f85e c73a 306e cdb5
000001b0: e684 a238 feac a2b5 f898 9634 6648 26b8
000001c0: 4626 41b6 27d6 30b2 c69f f3b5 1f65 1d38
000001d0: 3a0c e238 3968 9ab7 7541 b5b5 cf22 adb8
000001e0: 38bd 38b6 9398 bcb5 fcb4 3cb7 ca48 64b8
000001f0: 35c6 ceb8 63c7 d837 116f 04ba 36df 09b8
00000200: 8fcd 5eb7 b1d9 4cb9 52bf 3eb9 1c37 c738
00000210: 5128 6539 44c2 a939 3c44 83b6 bc1d 16b5
00000220: f112 9ab6 6823 e5b5 4d61 24bb 0479 6ab8
00000230: dc11 8cb8 6a37 53b9 fcc4 c9b8 e1d8 9337
00000240: b66d 90b8 8078 eab1 bc18 e5b8 41cf bab9
00000250: 1157 83b9 0e42 6db7 2225 a7b7 35f7 0f38
00000260: c9d9 f9b7 b233 54b9 b23f 12b9 4f06 fab9
00000270: 008d 32b8 1a9f a8b8 07e3 df36 78df 59ba
00000280: cb9d 77b7 378a 173a 86dd 2eba 6a20 1db9
00000290: facf 38b9 e2f2 20b5 4a65 0db6 db0b 4db8
000002a0: 93b9 7db9 8c42 f237 0c24 663a 88e9 68b9
000002b0: 09b6 23b8 898c da3a 7b6b a8b6 b22e 49b7
000002c0: 70b4 73ba b2b0 9ab4 b7c1 67ba 1487 a034
000002d0: 9f23 acb8 5415 2c35 2059 e1b8 902b 69b7
000002e0: 14b1 13b7 ef57 02b2 d98c 2eb7 2d48 1fba
000002f0: 6e68 2837 3500 b83a 1934 6ab8 a50f e4b8
00000300: 3ca2 7539 a2f4 aa39 c55a beb8 5011 22b9
00000310: 0cb7 4cb5 9b63 a3b9 f849 ddb8 7d04 6a35
00000320: 5a6c f1b6 7c1c cfb8 e23f 73b7 484f 1132
00000330: 78d1 d2b9 0914 c738 7443 4c37 f56d 7fb8
00000340: 4577 b0b9 1b6a be38 ab96 03b9 8f92 64ba
00000350: 0b56 28b8 f309 55b9 2f7d fb37 10ab 1db6
00000360: 1756 98b7 ffec 38b9 d98c 9cb8 56be 2a37
00000370: b8fa 80b9 3e12 f0b8 de72 4ab8 da50 f536
00000380: 2b5c 4138 d519 d438 2d43 3bb5 f7cc 3db3
00000390: e1ff 84b8 a785 3ab9 526c 3db8 431b d6b8
000003a0: 3813 2a3a 7fda d4b5 71b6 10b7 cf4b 7139
000003b0: 8584 8fb9 09e0 31b8 4864 f4b8 81d3 6236
000003c0: eb1e 15b9 9628 6a39 0069 2bb8 a765 86b4
000003d0: 1f00 fab6 1912 2137 fe8b a0b9 cfbf d1b7
000003e0: 00de d1b5 3b2e 8ab5 80d9 aeb7 8744 d8b5
000003f0: e254 00b9 7ffd e6b7 bf89 3339 4155 49b6
-5.0360482e-05 -2.6977557e-07 -0.00013245277 -1.4796804e-05 -2.4856925e-05 -0.0004874564 -3.060027e-05 -6.574678e-07
-4.0356986e-07 -4.1814087e-06 -4.3165874e-06 -4.7308527e-06 0.00017549908 -6.0638804e-06 -9.710099e-06 -0.00014862698
-2.694885e-05 -4.956362e-05 -0.0001109777 -2.7714275e-05 -0.00016894365 -0.00038579028 -9.0432295e-06 -5.4749988e-05
-6.201666e-05 -3.7002528e-06 -0.00010876322 0.0006098034 0.00013260481 -2.0720563e-06 -2.4940391e-05 -3.0856037e-05
0.00020591865 -8.608628e-05 -6.0934194e-06 -7.4682134e-07 -1.174487e-05 0.00014954882 -0.00014906902 -8.014131e-05
8.880879e-05 -1.870442e-05 -1.41887385e-05 -0.0002590221 -1.3291722e-06 -0.00024438457 -0.0002497246 -3.941963e-05
-1.827908e-05 -2.7495595e-08 -6.594564e-05 0.0006426587 5.104719e-06 -0.0005448422 -0.000102299186 0.00023488882
-7.662143e-05 -6.43297e-07 -0.000303785 -6.226669e-07 -8.864143e-05 -3.373158e-05 1.7789023e-05 -6.6298753e-06
-2.9244178e-05 -2.1801875e-06 2.6784667e-06 -3.33975e-06 -4.8118117e-08 -4.9489756e-07 -2.7984306e-06 -7.3876254e-06
-3.5970963e-06 -0.00035298773 0.00013030505 9.023548e-06 -1.1377633e-07 -8.904448e-05 0.00012736722 2.0569136e-05
-4.0279952e-05 -0.0006408189 -4.8469105e-05 -6.811348e-05 -1.0785056e-05 8.906755e-05 -0.00041517927 -4.490907e-05
-1.2095016e-05 -3.7033227e-05 -8.7451524e-05 -3.9859888e-06 1.7719069e-05 0.00014202343 -9.610782e-06 -1.9786057e-06
-0.0010177557 0.00040149144 -5.876797e-05 0.0001583652 -2.0310239e-05 -0.00042541884 9.809089e-09 -0.00011513827
2.308838e-05 0.00076447125 0.0015210798 -1.5305759e-06 7.749516e-05 -1.2120288e-06 2.8050977e-07 -3.964491e-05
-2.878152e-06 -1.0293241e-08 -1.8151411e-06 3.7525893e-05 0.00010778797 -1.8406763e-05 -1.3504601e-06 -8.2557664e-05
-2.7528276e-06 -1.4051496e-06 -1.1247812e-05 -5.4427226e-05 -9.8597644e-05 2.5842053e-05 -0.00050519506 -3.2871227e-05
-1.32800915e-05 -0.00019536052 -0.00018191084 9.4993244e-05 0.00021854161 0.0003237893 -3.9120478e-06 -5.5922624e-07
-4.5917627e-06 -1.7072134e-06 -0.002508241 -5.5902652e-05 -6.679047e-05 -0.00020143171 -9.621118e-05 1.7624758e-05
-6.88689e-05 -6.8239956e-09 -0.00010924178 -0.000356311 -0.00025051137 -1.414168e-05 -1.9925243e-05 3.4324086e-05
-2.9784527e-05 -0.00020237154 -0.00013947373 -0.00047688416 -4.2569824e-05 -8.040499e-05 6.6723474e-06 -0.00083111925
-1.4759086e-05 0.00057807885 -0.0006670583 -0.00014984762 -0.00017625085 -5.9958086e-07 -2.1069595e-06 -4.888685e-05
-0.00024197092 2.8879636e-05 0.0008779175 -0.00022212241 -3.9031762e-05 0.0016673963 -5.0193025e-06 -1.1991406e-05
-0.00092966016 -2.8813298e-07 -0.00088408164 2.9900605e-07 -8.208234e-05 6.410603e-07 -0.00010745437 -1.3898025e-05
-8.803112e-06 -7.58699e-09 -1.0404002e-05 -0.00060761237 1.0037895e-05 0.0014038148 -5.5838467e-05 -0.00010874801
0.00023425458 0.00032607192 -9.076813e-05 -0.00015455973 -7.626229e-07 -0.00031163995 -0.00010551879 8.7178324e-07
-7.1949735e-06 -9.875835e-05 -1.4498803e-05 8.458137e-09 -0.00040210388 9.492791e-05 1.2175053e-05 -6.0899143e-05
-0.000336582 9.07967e-05 -0.00012549262 -0.00087193487 -4.0134455e-05 -0.0002031697 2.9979825e-05 -2.3494395e-06
-1.81599e-05 -0.00017635895 -7.4648946e-05 1.0177106e-05 -0.00024600863 -0.0001144749 -4.826753e-05 7.3109813e-06
4.6100624e-05 0.00010113759 -6.976068e-07 -4.4191406e-08 -6.341912e-05 -0.00017788132 -4.5161993e-05 -0.00010209393
0.0006487849 -1.5858822e-06 -8.625547e-06 0.00023011792 -0.0002737382 -4.2408737e-05 -0.000116535055 3.3799736e-06
-0.00014221265 0.00022331098 -4.0867366e-05 -2.5033407e-07 -7.4505947e-06 9.6005615e-06 -0.0003062188 -2.500406e-05
-1.5636324e-06 -1.0295256e-06 -2.0843698e-05 -1.6113198e-06 -0.00012238653 -2.753618e-05 0.00017122085 -3.0000958e-06

fc2.weight f4 [300, 404]
00000000: 6846 0a2b 4679 092b d26a 962d e8bd 6528
00000010: 107f e7a8 c19d c82a d053 cea5 6c64 ac2a
00000020: 6300 a82a 3c48 1eaa 5414 9029 481f 612a
00000030: 75ee b72c 5fae 9b29 a24e 322a 5b5d 082b
00000040: 3062 28ac 849e 9729 0eda c729 b04b 9da9
00000050: ccf8 402c b5cb e4a9 453b 80a9 1ea5 3baa
00000060: 258e c02a ea17 13aa 9c9f 882a 1fc2 6f2b
00000070: 70a5 0d2a 0c3b 29a9 f4ca 072a c324 3729
00000080: 8a25 0eaa 305e 002c 2b8c 3aab 3018 efa9
00000090: b5d7 032c a497 91aa 7aa4 baaf 13a5 fb29
000000a0: f050 4a2b b746 8aaa e59e 3f2a 9293 9728
000000b0: 6a35 232a 986c 9627 fe7c 16aa 388c 79a9
000000c0: aa08 48aa b6ed cfa9 8458 e529 f0d3 3a29
000000d0: e163 352b c562 05aa 8641 5baa 44a0 a12a
000000e0: b6b8 aea9 c21b 062c 98d7 0b2c 0bca 92aa
000000f0: 15c2 8e2b 7d7f 5eaa fa54 d92a cf1a 332a
00000100: b02a d3ab 3c30 6a2f b62c 88ab 241e 0428
00000110: 44b7 0029 34f4 8629 f801 d0a9 aa12 1eab
00000120: 19ed 78ac 7158 f52d 80cc f928 91d7 4e2b
00000130: 1d3b 30aa d0ad 29a9 e47c 18ab d2b5 8b2b
00000140: e2d7 e92a c4bd ec29 69e6 da29 c48c 5daa
00000150: 8101 d52b f9b0 3bab 8acf 92ae d1f9 872a
00000160: 9ec6 daaa 8552 9da9 4640 912d bb8d a72a
00000170: 8763 912a 0f4b 04a9 ddd5 abaa e654 792a
00000180: 1c49 f829 a890 4aab c5cb ab29 8098 ee26
00000190: cff6 bca9 140d 3fae 464b 022b 3a9c 442c
000001a0: cc47 822a 0209 f3aa 57b8 1dae af92 c1aa
000001b0: a247 4cac 9b2b b22a 4a0b 962a dc3a bfa9
000001c0: 9afe eca8 5f48 51ab 0f8c 912b 9d23 dc2d
000001d0: 6e81 57ab 3451 29ad 0b12 53aa 3aff 1a2a
000001e0: 4484 e6a9 e35f 9daa 156d fb2a 2647 c728
000001f0: c62f 3cab a4e7 c2ab 7af4 112c ef34 9b2b
00000200: 021d bca9 70ee f82b 5655 d729 3f9a ceaa
00000210: 52e3 3f2a cb11 3d2b 0d07 b42a 727f 582b
00000220: 16cb 2da9 63d1 20aa a87d a0ab 4433 3e2d
00000230: 8466 f3aa 9d89 ea28 6b28 a6aa 2a7d a3ab
00000240: 760e 8daa 4aa2 8f29 a6eb 9ea9 57df 20aa
00000250: 60ab fd2a cf6e c229 2620 0fa9 461c a528
00000260: f000 ea29 12da 4a29 0890 83ab 2913 4a2b
00000270: 6c16 3e2a 7a4c 64a9 f000 822a bfd4 40ab
00000280: 9fd8 7d2b f355 8528 52d6 81ac 957e 13a9
00000290: 7bc1 902e 2814 8eae c12b 6cab daa6 a8a8
000002a0: f604 292c c922 43a9 5794 cb28 ada4 8829
000002b0: 12fa 6da8 4d78 b2aa ba14 b429 824e d129
000002c0: 9a93 c62c 5572 c22f a9f1 612e f3f8 8baa
000002d0: a157 c929 cc9a 6b2c 1ef9 7a2a 91da 142b
000002e0: 1074 efab 7aab 0faa 0570 4429 2bf5 53ab
000002f0: 1bef 50a9 9405 0aac a631 5ca7 30bd bd2c
00000300: 0e54 9329 3406 3e31 3894 96aa f958 b62b
00000310: 8e48 e32a da2a 402b c892 912b d30d 89a9
00000320: 1246 f8aa 9b51 42ab 7952 402a 7f3f 69ab
00000330: 01d9 83ab ac25 31aa e9c9 a6aa a671 56aa
00000340: 0286 bfaf 99e3 72ab aa19 1b2a bbd7 8eab
00000350: 4356 0e2b a477 252a 0010 0daa 5216 f4a9
00000360: 91de a2a7 28cc 07a8 1be6 caa8 618a 2c2b
00000370: 9331 af2a 50a7 0f2b 41db c6ab 7613 27aa
00000380: d9ef c0b1 c336 42aa eb6a 28ac 2b4d 122d
00000390: 0abc 9baa 5bea b828 a93e 55ac 08d4 0aa9
000003a0: ae4b 83a9 2051 87a5 c6ff 33a7 9414 572a
000003b0: 250c 47a9 ce81 0daa 64bb 582a 47e9 3baa
000003c0: 0755 f8ad d064 68a9 ccde 37ab f9b6 e92a
000003d0: da02 4faa 401f ec29 f2ea a6ad 2448 14ae
000003e0: 6976 c6ab c33b 22aa 900b b5ac ae3c c5ab
000003f0: 597d 02a9 8667 832b 343f 2bab 9220 8f29
4.9125157e-13 4.884048e-13 1.7100463e-11 1.2753233e-14 -2.5701256e-14 3.56366e-13 -3.5792097e-16 3.062302e-13
2.9843063e-13 -1.405828e-13 6.398411e-14 1.9994867e-13 5.227647e-12 6.913631e-14 1.5836857e-13 4.8446463e-13
-2.392874e-12 6.733245e-14 8.875202e-14 -6.98533e-14 2.742295e-12 -1.01605715e-13 -5.6946235e-14 -1.6666223e-13
3.4204684e-13 -1.306452e-13 2.4269204e-13 8.5179254e-13 1.2580713e-13 -3.7576753e-14 1.2060822e-13 4.066605e-14
-1.2625158e-13 1.8242179e-12 -6.6274997e-13 -1.0617928e-13 1.8735961e-12 -2.5862396e-13 -3.395007e-10 1.1175275e-13
7.187714e-13 -2.4562793e-13 1.7019335e-13 1.6828366e-14 1.449584e-13 4.17511e-15 -1.3366042e-13 -5.5410727e-14
-1.7766574e-13 -9.233883e-14 1.0184998e-13 4.1484123e-14 6.444273e-13 -1.184704e-13 -1.947384e-13 2.8710552e-13
-7.7591945e-14 1.9057954e-12 1.9872767e-12 -2.6075005e-13 1.0143575e-12 -1.9761792e-13 3.8605908e-13 1.5907695e-13
-1.50043e-12 2.1299312e-10 -9.675791e-13 7.334008e-15 2.8580667e-14 5.993158e-14 -9.237397e-14 -5.615878e-13
-3.5374535e-12 2.7892551e-11 2.7733241e-14 7.348506e-13 -1.5652449e-13 -3.7676297e-14 -5.417457e-13 9.927009e-13
4.1538913e-13 1.05134244e-13 9.7211146e-14 -1.9677581e-13 1.5134978e-12 -6.6681345e-13 -6.676178e-11 2.4154162e-13
-3.8862397e-13 -6.9865155e-14 1.6513135e-11 2.9763504e-13 2.5826235e-13 -2.937499e-14 -3.05241e-13 2.2145098e-13
1.1026095e-13 -7.1965567e-13 7.629274e-14 1.6555903e-15 -8.3916916e-14 -4.3439988e-11 4.628974e-13 2.7939998e-12
2.3142458e-13 -4.3171722e-13 -3.5861394e-11 -3.438547e-13 -2.9029908e-12 3.164941e-13 2.6653186e-13 -8.4923144e-14
-2.631168e-14 -7.435215e-13 1.0341744e-12 2.502692e-11 -7.6562964e-13 -9.6245685e-12 -1.8746825e-13 1.3766497e-13
-1.0236996e-13 -2.7955337e-13 4.4662248e-13 2.2124294e-14 -6.6857316e-13 -1.3848822e-12 2.0741451e-12 1.1028104e-12
-8.353909e-14 1.768764e-12 9.5627214e-14 -3.669998e-13 1.7043075e-13 6.717098e-13 3.1979316e-13 7.691548e-13
-3.8589866e-14 -1.42835e-13 -1.140356e-12 1.0811633e-11 -4.3236606e-13 2.6038899e-14 -2.951557e-13 -1.1616587e-12
-2.5056666e-13 6.3786284e-14 -7.057488e-14 -1.4288341e-13 4.5060743e-13 8.634553e-14 -3.1780263e-14 1.8330942e-14
1.039185e-13 4.5042156e-14 -9.348087e-13 7.1791406e-13 1.6883169e-13 -5.0692503e-14 2.309329e-13 -6.8507347e-13
9.018428e-13 1.480324e-14 -3.690195e-12 -3.275035e-14 6.582731e-11 -6.460993e-11 -8.3904764e-13 -1.8724107e-14
2.4019098e-12 -4.332887e-14 2.260186e-14 6.06818e-14 -1.3210368e-14 -3.1702627e-13 7.997201e-14 9.2950834e-14
5.6438855e-12 3.5369632e-10 5.1373714e-11 -2.4864103e-13 8.941394e-14 3.3481438e-12 2.229089e-13 5.2883484e-13
-1.7014185e-12 -1.2760444e-13 4.3617904e-14 -7.53025e-13 -4.639267e-14 -1.9614076e-12 -3.0558048e-15 5.392707e-12
6.5426925e-14 2.7652165e-09 -2.67482e-13 1.2956573e-12 4.0373645e-13 6.827157e-13 1.034361e-12 -6.08642e-14
-4.410227e-13 -6.9035896e-13 1.7081639e-13 -8.2866347e-13 -9.36834e-13 -1.5733828e-13 -2.9627627e-13 -1.9046448e-13
-3.4837916e-10 -8.6291526e-13 1.377567e-13 -1.0149584e-12 5.0568246e-13 1.4696453e-13 -1.2528867e-13 -1.0839649e-13
-4.520534e-15 -7.538275e-15 -2.2526297e-14 6.1298715e-13 3.1120644e-13 5.1036e-13 -1.4129601e-12 -1.4839331e-13
-5.615203e-09 -1.724966e-13 -2.3933587e-12 8.316274e-12 -2.766401e-13 2.0529739e-14 -3.0303904e-12 -3.0826063e-14
-5.830697e-14 -2.347374e-16 -2.4979895e-15 1.9102975e-13 -4.419741e-14 -1.2568351e-13 1.9249668e-13 -1.6689871e-13
-2.8232095e-11 -5.160179e-14 -6.5323853e-13 4.1516077e-13 -1.8386283e-13 1.04859264e-13 -1.8976352e-11 -3.3715378e-11
-1.4101612e-12 -1.4409224e-13 -5.145613e-12 -1.4014534e-12 -2.897452e-14 9.336843e-13 -6.0839116e-13 6.356126e-14

fc2.bias f4 [300]
00000000: ca29 eeb2 26d9 83b8 b05d b937 ea07 8038
00000010: 66cf 4a38 e064 99b1 d466 18b9 4b1b 6339
00000020: d8b8 2ab5 c2a7 fbb7 1dc1 d9b7 d4a8 ffb8
00000030: 2f0d 8933 da29 d8b7 fc76 dfb2 e42f 7439
00000040: 9265 48b9 d52b ecb9 40bc 11b4 eeed adb8
00000050: 5884 b539 b195 4cb6 ca02 383a e808 1838
00000060: aad2 10b1 8f9d 32b4 b0a1 bd38 adda b8b8
00000070: f41b 6a3a 645d f32e e809 82b7 70ea 4c38
00000080: cbf5 64b9 7b5a c1b3 8b78 dc35 e4b7 383a
00000090: 906e 14b6 cab8 21b9 0cad dd3a 3c9f 183b
000000a0: 685f d738 4fa0 a339 a305 1a38 421c 3839
000000b0: 016f bab5 c599 e136 d39a 00b7 24b6 79b6
000000c0: c422 763a a2bd afb8 c7a0 5b38 2625 133c
000000d0: 3a68 1e39 2f2f e338 23ed 4ab7 db3d c438
000000e0: 8d7d f23a 25bb ecb8 6536 3cb6 78dd 3a38
000000f0: e4db 28b9 8962 703a c0e7 ba34 27f3 abb9
00000100: 5541 7e37 879c 08b9 2edc c8b7 97ba a5b3
00000110: 24b3 9538 351b 7137 411e 5cb9 005a b037
00000120: 3e77 36b9 6430 0539 ba1b f8b8 fa06 c0b8
00000130: 3e3a c238 df52 6fb8 a276 a3b8 9800 9638
00000140: a661 8738 dd17 3c3c 5fa6 8e32 639e c439
00000150: 2933 32b8 47fd b1b8 a038 23b8 bd40 88b7
00000160: 549e 2035 85f6 32b8 3034 0c39 09fa 4cb8
00000170: 2201 193b f879 9cb6 6688 8039 c61b aab1
00000180: ee39 a439 5b83 c8b9 8f29 34b9 16bb 5cb3
00000190: 4495 9b3a 2638 9bb5 4987 1c39 1fba 09b4
000001a0: 0b95 2a39 5b6d 2039 9a4c 2a3a 954e 06b7
000001b0: 1f5b 6cb9 f206 dcb7 20b2 0d39 1fd2 23b8
000001c0: 895a 943a f8e2 bbb8 9218 b8b9 df15 b339
000001d0: bf6d 99b5 8ac2 ecb7 e965 49ba 341f ae38
000001e0: 7388 60b3 b81e 8bb7 ba54 833a eb64 3e39
000001f0: 0647 1ab9 2b3a 5c3c e0e3 dbb7 bbdc d3b8
00000200: 3fa5 fe38 73b3 ee3b 2c0e 1537 0ade 0f39
00000210: 1281 1ab8 97dd 09b9 4686 683b 7eba a939
00000220: 6baa 9cb9 7218 1432 d361 4db8 1cbb 673b
00000230: c131 03ba 0067 86b8 c39b 2cb6 d823 ff2d
00000240: 83b5 26b9 63ef 39b9 1ada eb39 5c33 b738
00000250: efc9 dfb9 0ecc 83b9 20a9 ccb0 95e9 26b7
00000260: 1c41 d9b7 8843 953b 81ae e838 3efd 013b
00000270: da27 2a3c 36af ecb5 a3e9 1fb8 f48c 1aba
00000280: 10ef 0db5 e7d0 90b9 34e2 e0b8 00ef a5b5
00000290: e0eb 7db7 e2f6 28b8 bf73 78b3 c052 9f39
000002a0: a52e 25b8 4ba2 28b8 3a68 3ab8 a0ee e3b2
000002b0: fd48 aab7 ddb3 9db9 bad2 a7ad e6b2 43b9
000002c0: ad6a 54b9 a0aa b8b7 122b d437 40d9 6ab9
000002d0: 33bb 9b38 0aa0 7eb9 a439 27b6 7a53 06b9
000002e0: 5430 f738 2d42 ecb8 34ad 5d2f fe29 7db9
000002f0: f9a2 b43b 0897 15b9 1acb 9ab8 30cc 3639
00000300: 7948 10b9 cb99 6438 2058 3a3b 7404 2d39
00000310: ba0a c1b9 30b7 f73a 45cb d8b6 e77b 463c
00000320: 9ff2 2039 02ac 01b8 f128 b2b9 fe0a 2bb9
00000330: fec1 67ba a0aa 6eb9 22d4 c239 1890 803c
00000340: 4434 393a 0b5c f0b7 1ea4 8db4 a014 08b8
00000350: 9584 b338 9fa1 2b37 38d9 5fb7 1615 0eaf
00000360: e4f4 8bb9 d850 40b7 74ea b735 ecf5 88b8
00000370: d0db cf32 9291 11b7 2879 1938 040b 8232
00000380: 833c 2a3a 1881 a238 4e3d 4db9 8fc5 adb7
00000390: a823 c838 3271 b737 977b 6e3b 360c eeb5
000003a0: 90d3 9ab7 9602 9038 74ae 7b36 38b3 ae38
000003b0: de21 eab9 53fc 37b8 de58 633c 625f 03b4
000003c0: 7337 273a 5e06 4eb8 b5c7 44b8 95b2 bdb7
000003d0: 7199 b4b9 a977 25ba 30e9 cbba 5bed 5c3b
000003e0: 84c1 4039 a631 f0b8 6497 8bb9 2810 88b3
000003f0: 3063 a639 d3b6 f23b 1813 6735 ed94 8cb7
-2.772585e-08 -6.287014e-05 2.2097345e-05 6.10499e-05 4.8353708e-05 -4.464354e-09 -0.00014534156 0.00021658574
-6.359892e-07 -2.999965e-05 -2.5958341e-05 -0.00012190794 6.381958e-08 -2.5768695e-05 -2.6014725e-08 0.00023287494
-0.00019111324 -0.00045046085 -1.3572662e-07 -8.293601e-05 0.00034621614 -3.04855e-06 0.00070194586 3.624792e-05
-2.1074507e-09 -1.6634861e-07 9.042339e-05 -8.814535e-05 0.0008930557 1.106695e-10 -1.550182e-05 4.8855727e-05
-0.0002183534 -9.003721e-08 1.642636e-06 0.0007046445 -2.2118074e-06 -0.00015422996 0.0016912534 0.002328827
0.0001026977 0.00031209222 3.672171e-05 0.00017558134 -1.3890386e-06 6.7234237e-06 -7.665442e-06 -3.7209911e-06
0.0009389336 -8.379972e-05 5.2363404e-05 0.008981025 0.00015106882 0.00010832992 -1.2095351e-05 9.35753e-05
0.0018500552 -0.00011288215 -2.8045845e-06 4.4552115e-05 -0.00016103644 0.00091699563 3.481382e-07 -0.00032796824
1.5154791e-05 -0.00013028282 -2.3944387e-05 -7.717352e-08 7.138241e-05 1.4371054e-05 -0.00020992105 2.1022744e-05
-0.00017401294 0.00012701895 -0.00011830726 -9.156573e-05 9.261489e-05 -5.705922e-05 -7.794543e-05 7.152668e-05
6.45549e-05 0.011480299 1.6606633e-08 0.0003750204 -4.2486154e-05 -8.487194e-05 -3.8914965e-05 -1.624261e-05
5.983504e-07 -4.2668096e-05 0.00013370882 -4.8870254e-05 0.0023346622 -4.6633613e-06 0.00024515687 -4.9508087e-09
0.0003132368 -0.0003824484 -0.0001718162 -5.1392895e-08 0.0011870046 -1.1564741e-06 0.00014927717 -1.282683e-07
0.00016267986 0.00015299527 0.00064964 -8.005319e-06 -0.00022540659 -2.6229278e-05 0.00013513165 -3.905792e-05
0.0011318485 -8.959131e-05 -0.0003511352 0.00034157836 -1.1431329e-06 -2.8223982e-05 -0.00076827273 8.3027786e-05
-5.2278164e-08 -1.6584396e-05 0.0010019757 0.00018157407 -0.00014713043 0.013441603 -2.6212947e-05 -0.00010102378
0.00012142443 0.0072845756 8.884392e-06 0.00013720259 -3.6836667e-05 -0.00013147887 0.0035480424 0.0003237314
-0.0002988161 8.620292e-09 -4.8966915e-05 0.0035359329 -0.00050046673 -6.408803e-05 -2.5720663e-06 2.9006061e-11
-0.00015898612 -0.00017732153 0.0004498519 8.7356864e-05 -0.00042684327 -0.000251383 -1.4891022e-09 -9.948756e-06
-2.5898735e-05 0.0045551695 0.00011095126 0.0019834782 0.010385478 -1.7634363e-06 -3.8126145e-05 -0.00058956374
-5.2874475e-07 -0.00027621465 -0.00010723286 -1.2363016e-06 -1.5134894e-05 -4.028425e-05 -5.784727e-08 0.00030388497
-3.9382507e-05 -4.020547e-05 -4.4442924e-05 -2.6534792e-08 -2.0299567e-05 -0.00030079382 -1.9079283e-11 -0.00018663294
-0.00020257635 -2.2013963e-05 2.5292426e-05 -0.00022396911 7.4258445e-05 -0.00024282947 -2.491849e-06 -0.00012810333
0.000117868796 -0.00011265683 2.0161367e-10 -0.00024143604 0.005512592 -0.00014266011 -7.381123e-05 0.00017432938
-0.00013759908 5.4502667e-05 0.0028433874 0.00016500225 -0.0003681982 0.0018899199 -6.4609653e-06 0.012114502
0.00015349172 -3.091619e-05 -0.0003398131 -0.00016311926 -0.0008840858 -0.00022761011 0.00037160615 0.01569371
0.0007064978 -2.865309e-05 -2.6382708e-07 -3.2444135e-05 8.5600805e-05 1.0230025e-05 -1.3342411e-05 -1.2922316e-10
-0.00026694604 -1.1462915e-05 1.3702797e-06 -6.530792e-05 2.419793e-08 -8.676567e-06 3.6590878e-05 1.5139001e-08
0.00064940023 7.7488075e-05 -0.00019573161 -2.0715202e-05 9.543385e-05 2.186801e-05 0.0036389583 -1.7735936e-06
-1.8456747e-05 6.866937e-05 3.750346e-06 8.330349e-05 -0.0004465719 -4.3865595e-05 0.013876168 -1.2235026e-07
0.0006378807 -4.9120157e-05 -4.6916033e-05 -2.2613714e-05 -0.00034446598 -0.0006312081 -0.0015557166 0.003371081
0.00018382637 -0.000114533395 -0.0002662494 -6.335932e-08 0.00031735888 0.0074070483 8.608199e-07 -1.675865e-05

fc3.weight f4 [1, 300]
00000000: fd85 c73a 2c0e 0b3a 1871 b2b8 80a4 84ba
00000010: ebc4 5639 2925 1e32 20be f439 67bf 2cbb
00000020: 0c64 3a3b 7232 843a b41f eb3a 8e76 6a3a
00000030: 50ce 7db3 afc6 b3b9 bdf0 abb2 b971 f2ba
00000040: 1fc3 343a 0cc5 6eba cf71 8b3a 0ae7 2d3a
00000050: 0cee 6b3b 24aa de35 46e5 143b 5d2a cd3a
00000060: edde ef3a 65f4 b4b9 5bf9 8aba db85 d93a
00000070: 2cda 5d3b efc4 1caf e51d 2f39 0e5c 90ba
00000080: 8a05 703a 0be4 e0ba fc77 c3b7 80ae 2a3b
00000090: 65d8 57ba f595 0dba 8643 7e3b f054 07bc
000000a0: 4248 00bb 7419 b93a 337c e8b9 40bd 18bb
000000b0: a5cc b83a 7afb f939 0010 ffb9 a11d 70ba
000000c0: 655f 3d39 19f1 1cba c1c2 bfba 28bc db3c
000000d0: 94f7 d739 3fde b139 8bc0 2eb8 74f7 2fba
000000e0: 0267 f33b e6bc 643a 9970 9339 1a63 9db7
000000f0: 3fda 6e3a d9de 57bb 3c52 9334 2a31 973a
00000100: d30d 9438 ce1d d13a 1ff2 dcb8 7a85 cfba
00000110: 4d6d 04ba a95a 8db9 5a56 793a a317 0d39
00000120: 14f4 4fba 0f35 0abb 3834 673a 8bbc 7539
00000130: da0b d1ba 06bb c239 f949 efba f4f0 2139
00000140: 6d5c 99ba 8b0d 543d 8eb5 5732 94c0 d2ba
00000150: ef59 19ba 713f b0b9 9102 a53a e384 f637
00000160: 22d7 f4b8 c545 b739 9391 fcba 2400 11b9
00000170: 7889 123c 171a 8ab6 ef4b 06bb b41b 4ab0
00000180: f6d6 82bb 3b01 dfba 6fc3 663a 4641 313a
00000190: 18ed 943b 223d 1b37 7758 c339 1772 80b8
000001a0: bf3a d6b9 46ee 12bb 1914 fbba 0619 d936
000001b0: 3933 963a 32f0 72b8 90e2 c639 188c d5ba
000001c0: f1ca 523b 3661 cd3a 4e84 0fba 2a03 beba
000001d0: 52a6 b5b5 3e4b 303b bde8 ab3a f7de acba
000001e0: 8734 1534 2707 243b aa6d 5f3b f1b0 e3ba
000001f0: 7893 94ba 524c 213d 9fb1 84b9 dce8 723a
00000200: e534 3aba feb9 f73c a9e2 b5b9 0ebd e139
00000210: b323 723a 9fbc d0b9 4c8f 063c eaeb 51bb
00000220: b464 4e3b 5727 e1b2 df50 7839 8f52 723c
00000230: fdb8 15bb be00 d03a 4fb6 dab6 9d71 54af
00000240: b5f6 54ba 112f f3ba d03a cbba 3c21 203a
00000250: 05b7 b13a 4ca7 463a e2f0 1730 d842 fe39
00000260: d44e 9839 de46 a43c 3b7c 1d3a bfc6 5f3b
00000270: 9779 10bd 4787 cab7 9b69 c1ba fb40 333b
00000280: 0202 bbba 23ad 4c3b 89a2 6aba dc55 3eb6
00000290: 4e91 4737 1362 ba3b df2b f239 6d25 a9ba
000002a0: ddc2 9cb9 12ef 203a 1e04 8f3a 25af a432
000002b0: adba 77b8 79ed 693a ebd1 17ae cf46 d5ba
000002c0: 8bcf 263a 7580 27b8 f543 60ba 5856 4eba
000002d0: 8a6c d3ba 304e 253b 23b7 10b7 f3d2 7eb9
000002e0: e472 4ebb b46e 4b3a 2f63 0dad 40a3 243a
000002f0: 1ca2 cd3c ffbd 173a dc31 7f3a a551 16bb
00000300: 0102 a439 d46c b8ba de42 393c 5f12 c0ba
00000310: bcd6 a13a e1a5 2fbc c426 db37 a186 27bd
00000320: 9ebe ffb9 1b36 b5b9 979f 543a dac3 c839
00000330: b975 f13a 4de0 8dba 3154 09bb 7b68 0f3d
00000340: 0239 ba3a 0784 b3ba cc14 0b34 6588 4dbb
00000350: 4652 a6b9 70c8 0cb9 1df6 aeb7 5a56 4eaf
00000360: 6500 d939 1249 1d37 367c e935 f4d1 a0ba
00000370: 898b 8cb6 429b df38 ac1e 54ba f01c a3b3
00000380: 32f9 1e3b b355 00ba ec47 2bba a083 243a
00000390: ab48 98ba d76f 59b8 2a50 dc3b 435d be39
000003a0: 5f3f f0ba 158b fcba 9cd8 c8ba 75d1 4bba
000003b0: 888f dfba 97f1 3cb9 19cd 5fbd dc6b a634
000003c0: d9b0 ba3a 6f1e 65ba 00bc 883b a43d 73ba
000003d0: 4909 c0b8 7b77 9bba de05 593b 0c8b 203c
000003e0: 72fb 28bb c030 79ba 4ac4 bf3a f9d5 cfb3
000003f0: 9a21 f8ba 9fe1 8a3c a12a 2bb7 7da8 1738
0.0015222427 0.0005304541 -8.508767e-05 -0.0010119826 0.00020481988 9.20526e-09 0.0004668096 -0.0026359202
0.002844098 0.0010085835 0.0017938525 0.00089440576 -5.9093793e-08 -0.0003428957 -2.0016495e-08 -0.0018497027
0.00068955304 -0.0009108342 0.0010638776 0.0006633854 0.0036000041 1.6589806e-06 0.0022719665 0.0015652884
0.001830069 -0.00034514364 -0.0010602878 0.0016595678 0.0033851964 -1.4258082e-10 0.00016700437 -0.0011013763
0.0009156099 -0.0017157806 -2.3301684e-05 0.0026043952 -0.00082338444 -0.00054010685 0.0038797571 -0.008259997
-0.001957432 0.0014121966 -0.00044343024 -0.0023306161 0.0014099075 0.00047680346 -0.0004864931 -0.00091596885
0.00018059982 -0.0005986854 -0.0014630185 0.026823118 0.00041192456 0.00033925657 -4.1664152e-05 -0.00067125936
0.007428051 0.0008725658 0.00028121917 -1.8762006e-05 0.00091115007 -0.0032939224 2.7440717e-07 0.0011535038
7.059765e-05 0.0015954317 -0.00010535516 -0.0015832626 -0.00050516875 -0.00026961163 0.00095114636 0.00013455613
-0.0007932794 -0.0021088754 0.0008819732 0.00023435258 -0.0015948967 0.00037141907 -0.0018256298 0.00015443919
-0.0011700519 0.051770728 1.2555928e-08 -0.0016079121 -0.0005849888 -0.00033616603 0.0012589266 2.9387365e-05
-0.00011674898 0.00034956462 -0.0019269459 -0.0001382833 0.008943908 -4.1157577e-06 -0.0020492037 -7.352654e-10
-0.0039929105 -0.0017013917 0.00088029256 0.00067617407 0.0045448653 9.2529535e-06 0.0003725921 -6.1247665e-05
-0.0004086103 -0.0022419854 -0.001915577 6.470017e-06 0.0011459357 -5.7920995e-05 0.00037934305 -0.0016292362
0.003216442 0.001566923 -0.0005474732 -0.0014496793 -1.3533956e-06 0.0026900317 0.0013115626 -0.0013189007
1.3895816e-07 0.0025028677 0.0034092464 -0.0017371458 -0.0011335453 0.039379425 -0.0002530934 0.0009266266
-0.0007103219 0.030240055 -0.00034691885 0.000430562 0.0009236887 -0.00039813385 0.008212876 -0.0032031485
0.003149313 -2.6211337e-08 0.0002368125 0.014790191 -0.0022845857 0.0015869362 -6.51813e-06 -1.9321651e-10
-0.00081239204 -0.0018553456 -0.0015505198 0.0006108468 0.0013558572 0.000757803 5.5275795e-10 0.00048496458
0.0002905043 0.020053323 0.00060075865 0.0034145562 -0.035272207 -2.414327e-05 -0.0014756204 0.0027351964
-0.0014267566 0.0031231127 -0.0008950611 -2.8362183e-06 1.1895156e-05 0.005687961 0.00046190523 -0.001290483
-0.00029899823 0.000613914 0.0010911261 1.917176e-08 -5.9063244e-05 0.0008923631 -3.451987e-11 -0.0016271713
0.0006363324 -3.9935538e-05 -0.0008555048 -0.00078711426 -0.001613037 0.0025223605 -8.625709e-06 -0.00024301912
-0.0031501586 0.00077603315 -8.036945e-12 0.00062804297 0.025101714 0.00057885045 0.00097349077 -0.0022936848
0.0003128201 -0.0014070519 0.011307446 -0.0014653913 0.0012347321 -0.010720701 2.6124886e-05 -0.040899877
-0.0004877941 -0.00034563322 0.0008110939 0.00038292893 0.0018421925 -0.0010824293 -0.0020954723 0.03501175
0.0014207663 -0.0013695963 1.295295e-07 -0.0031361815 -0.00031723286 -0.00013426109 -2.0857022e-05 -1.8766269e-10
0.0004138976 9.374942e-06 1.7396003e-06 -0.0012269602 -4.188569e-06 0.00010662388 -0.00080917287 -7.595543e-08
0.0024257419 -0.00048955827 -0.00065338495 0.0006275717 -0.0011618336 -5.184099e-05 0.0067234235 0.0003630911
-0.0018329433 -0.0019267524 -0.0015323344 -0.0007775047 -0.0017056325 -0.00018019076 -0.054638956 3.0998388e-07
0.0014243379 -0.00087401917 0.004172802 -0.00092788995 -9.157003e-05 -0.001186117 0.003311507 0.009798776
-0.0025784639 -0.00095058605 0.0014630642 -9.67811e-08 -0.0018930912 0.016953288 -1.020232e-05 3.6158122e-05
