data/ddpg-2019-03-23-checkpoint-DDPG.actor.pth (torch_old, 541437 bytes, 6 tensors)

fc1.weight f4 [400, 33]
-0.039692756 0.041201904 -0.02213884 0.041405242 -0.0013396303 0.0050726896 -0.046470825 0.040613867
-0.04682574 -0.0043332777 -0.04726738 0.026088458 0.00063812867 -0.014639633 -0.028612494 -0.01089654
-0.03989924 -0.019875284 -0.04175737 -0.051367283 0.029094148 -0.053431373 0.005235738 0.039657
0.026039688 -0.030580498 -0.013576512 -0.021577116 0.033066295 0.049657617 0.01790768 -0.028602464
0.039527066 -0.03353437 -0.059270572 0.0076027666 0.018221734 0.0015978387 -0.012743423 -0.025818383
8.491506e-05 -0.010837965 -0.015220307 0.037948526 0.022453966 0.03527644 0.049799632 -0.031073362
-0.05025332 -0.03354099 -0.04291953 -0.016896006 0.041872468 -0.042488758 -0.048432387 -0.03253072
0.01995349 -0.0029882481 -0.016890077 0.032113697 0.011938407 -0.005773917 -0.041183244 0.02907692
-0.011414509 0.009319522 -0.002323413 -0.014217582 0.00442185 -0.0022341548 -0.052595504 -0.031699963
0.019702556 -0.01810958 0.016905474 -0.039291035 0.03545628 -0.009090972 0.0264273 -0.04700966
0.039977185 0.05435948 0.036269553 0.050537214 -0.049425364 -0.04958722 -0.00025810048 0.024012575
-0.010250498 -0.03287595 -0.009088283 0.036074165 -0.02464671 -0.041365433 0.02738372 -0.034138605
-0.020124141 0.04606835 -0.034718502 0.042767864 0.013218322 -0.037745845 0.006703926 -0.03082865
-0.03399671 -0.018487945 -0.033672698 -0.019253172 -0.049482986 -0.058052287 0.010580262 -0.048837114
0.024648242 0.025557104 -0.04344054 0.015793882 0.001345522 -0.043766618 -0.044388525 -0.022737326
0.011108111 0.009588001 -0.03601724 -0.030256273 0.04389611 -0.03433968 -0.038834877 0.028901553
-5.0626695e-05 -6.7141555e-06 -0.000518851 0.036513742 -0.020535866 0.049922656 -0.0065646223 -0.035539262
0.037458546 0.03759921 0.0024060034 0.019501753 0.0009395992 0.04506003 0.030792836 0.01797603
0.0012363847 -0.018774524 -0.033862527 -0.01627086 0.034783844 -0.0222411 0.051553417 0.020210406
-0.056064196 -0.0072376253 0.03374695 0.008587216 -0.044897348 -0.05023093 0.009365361 0.0014695069
-0.059559677 -0.0379647 -0.026909497 -0.009385206 0.011276528 -0.003680212 -0.03838113 -0.042685945
-0.045522477 0.04124838 -0.011057481 -0.022110643 -0.038751017 0.012468924 0.039297443 0.029539216
0.02229081 -0.024376638 -0.047861 0.026519021 -0.016364053 -0.018797642 0.050487258 -0.011453841
-0.05207715 0.04349732 0.010334792 -0.026832525 -0.0055659506 0.049731977 0.038499366 0.020795614
0.013464244 -0.021083778 0.046912704 0.032272108 0.0009202771 -0.050468672 -0.0073877214 0.013579338
-0.0056127957 0.017686505 -0.04312571 0.020252993 0.020930119 -0.00067664986 0.014038724 0.026111437
0.023793427 -0.033142004 0.04151704 -0.024672704 -0.007068701 -0.010388792 0.007593104 -0.005036975
0.02727506 0.035482917 0.025216617 -0.009587063 -0.04839741 0.044257168 -0.03816352 0.030741202
-0.038664732 0.029573953 0.01669507 -0.042831894 -0.050459173 0.01055352 -0.033156335 -0.04513205
-0.04825784 0.0024788203 0.031387817 -0.045989938 -0.042043276 0.005756552 -0.022000983 -0.0020501546
0.0061327256 0.0260921 -0.035036903 0.013463338 -0.03692725 -0.046040654 0.054115783 0.00047018338
0.03459242 0.02313232 -0.04886455 0.020432996 0.048382804 0.0043192073 0.04469031 0.055693176
00000000: df94 22bd 54c3 283d 835c b5bc 8b98 293d
00000010: 8996 afba ce38 a63b 3158 3ebd ba5a 263d
00000020: 59cc 3fbd 2bfe 8dbb 719b 41bd 76b7 d53c
00000030: 1748 273a 12db 6fbc c064 eabc 6787 32bc
00000040: 636d 23bd 7ed1 a2bc c709 2bbd 8066 52bd
00000050: da56 ee3c dbda 5abd 8e90 ab3b 616f 223d
00000060: 2f51 d53c f483 fabc 0570 5ebc 7ec2 b0bc
00000070: 8670 073d c965 4b3d 20b3 923c b74f eabc
00000080: 22e7 213d 565b 09bd b3c5 72bd a120 f93b
00000090: bf45 953c 926e d13a cac9 50bc 1381 d3bc
000000a0: 6d14 b238 b891 31bc 985e 79bc ea6f 1b3d
000000b0: 61f1 b73c 077e 103d b3fa 4b3d 908d febc
000000c0: 6dd6 4dbd 4762 09bd 64cc 2fbd 7e69 8abc
000000d0: 7782 2b3d b108 2ebd 0a61 46bd ef3e 05bd
000000e0: 8075 a33c 7cd6 43bb 0f5d 8abc a789 033d
000000f0: 4f99 433c 2033 bdbb c3af 28bd b932 ee3c
00000100: ec03 3bbc e9b0 183c 6744 18bb dcf0 68bc
00000110: 2be5 903b e66a 12bb 626e 57bd d2d7 01bd
00000120: 4167 a13c 8b5a 94bc 597d 8a3c a3ef 20bd
00000130: 9b3a 113d 4df2 14bc 117e d83c 348d 40bd
00000140: 1ebf 233d 0ca8 5e3d 628f 143d 1c00 4f3d
00000150: 4072 4abd f81b 4bbd a951 87b9 05b6 c43c
00000160: b4f1 27bc efa8 06bd 06e7 14bc 81c2 133d
00000170: e6e7 c9bc cd6e 29bd d353 e03c ecd4 0bbd
00000180: 62db a4bc 2bb2 3c3d fd34 0ebd 5b2d 2f3d
00000190: a991 583c 639b 1abd 9bac db3b 5d8c fcbc
000001a0: 2240 0bbd 0874 97bc 62ec 09bd d4b8 9dbc
000001b0: acae 4abd 3cc8 6dbd d658 2d3c 6d09 48bd
000001c0: 1ceb c93c 225d d13c b5ee 31bd 2c62 813c
000001d0: 3a5c b03a a044 33bd bed0 35bd a143 babc
000001e0: cbfe 353c fe16 1d3c d086 13bd 01dc f7bc
000001f0: 68cc 333d c4a7 0cbd 5211 1fbd f3c2 ec3c
00000200: 0058 54b8 284a e1b6 8003 08ba 6f8f 153d
00000210: d53a a8bc b37b 4c3d 0b1c d7bb 9e91 11bd
00000220: 226e 193d a101 1a3d 0aae 1d3b 24c2 9f3c
00000230: 6f4f 763a de90 383d 4241 fc3c 7842 933c
00000240: 300e a23a 08cd 99bc 6fb3 0abd 774a 85bc
00000250: 8179 0e3d f832 b6bc ad29 533d 4b90 a53c
00000260: 92a3 65bd 9a29 edbb 3e3a 0a3d 65b1 0c3c
00000270: 48e6 37bd f3be 4dbd 2c71 193c 789c c03a
00000280: d9f4 73bd e080 1bbd 4e71 dcbc 68c4 19bc
00000290: 30c1 383c b62f 71bb 8835 1dbd 75d7 2ebd
000002a0: c775 3abd 10f4 283d 702a 35bc 6121 b5bc
000002b0: 63b9 1ebd 754a 4c3c 5bf6 203d 3afc f13c
000002c0: 379b b63c 84b1 c7bc e509 44bd 6b3e d93c
000002d0: e80d 86bc 83fd 99bc bacb 4e3d e4a8 3bbc
000002e0: da4e 55bd 3f2a 323d 4253 293c e2cf dbbc
000002f0: 9462 b6bb c2b3 4b3d 83b1 1d3d 905b aa3c
00000300: 2299 5c3c e3b7 acbc 8927 403d c22f 043d
00000310: c03e 713a 3db8 4ebd b314 f2bb df7b 5e3c
00000320: 8beb b7bb 4ae3 903c 96a4 30bd 9be9 a53c
00000330: a475 ab3c 3461 31ba ad02 663c a7e7 d53c
00000340: 6fea c23c e9bf 07bd c60d 2a3d 691e cabc
00000350: 90a0 e7bb c035 2abc 93cf f83b 350d a5bb
00000360: f26f df3c 8956 113d 1493 ce3c 0f13 1dbc
00000370: 5d3c 46bd 0147 353d 5a51 1cbd f9d4 fb3c
00000380: e95e 1ebd 1345 f23c 19c4 883c 7f70 2fbd
00000390: 47ae 4ebd ace8 2c3c f0ce 07bd 62dc 38bd
000003a0: 03aa 45bd b473 223b 8390 003d f25f 3cbd
000003b0: 9235 2cbd 75a1 bc3b 683b b4bc e35b 06bb
000003c0: 08f5 c83b 1abf d53c db82 0fbd 5595 5c3c
000003d0: 0741 17bd 2095 3cbd 83a8 5d3d f282 f639
000003e0: c8b0 0d3d fe7f bd3c 3226 48bd 1963 a73c
000003f0: 0c2d 463d 2388 8d3b 300d 373d 871e 643d

fc1.bias f4 [400]
-0.07741616 -0.06252498 0.17652625 0.042530864 -0.13615753 -0.14690448 -0.15527062 -0.116999485
-0.09061581 -0.09339223 0.1387624 -0.058715597 0.17496607 -0.021127291 -0.12929875 -0.04833756
-0.06217813 -0.09880162 -0.15598933 0.016519088 -0.13491666 -0.037635863 -0.028971495 -0.0938967
0.001342155 -0.13188042 -0.042817652 0.1568264 0.166083 0.024547637 0.05332935 0.16123275
0.18146893 -0.070185676 0.03855325 -0.022532428 -0.104875416 0.1690616 0.14797479 0.015299165
0.15127076 0.057160802 0.12669891 0.08357006 0.09230451 0.07138312 0.096379444 0.16414377
0.08219953 -0.10597179 0.07130239 0.17606641 0.15536481 0.1183376 -0.050057355 0.18160854
0.049453687 -0.08420011 0.0029007539 0.13716358 -0.14694995 -0.030404238 0.1399923 -0.033163063
-0.057837375 -0.036860924 0.06294154 -0.12433195 0.03955917 0.057362467 0.052459333 0.0073273
0.099302806 0.002471375 0.14568964 0.12448213 -0.10689976 -0.01957025 0.14950477 -0.006670227
-0.037038494 -0.00086384476 -0.031653065 -0.05233803 0.051046982 0.16149461 0.036290355 0.10866326
0.1444151 -0.10041322 -0.110393405 -0.0074601388 0.057894316 -0.010116662 -0.07060212 -0.113644116
0.014757406 0.13890785 0.01846576 0.17499574 -0.07176912 0.1714006 -0.105631985 0.14982963
0.023867555 0.18304871 0.17550716 -0.060669415 -0.0017524916 -0.03827766 0.047902685 -0.07433507
-0.028830796 -0.0836712 0.11571621 0.15148509 0.031568997 0.007104769 -0.12257264 -0.15511227
-0.1218772 -0.121929035 -0.12953159 0.09182507 -0.12778842 0.09465196 0.12682503 0.011379542
0.056636047 0.11488099 -0.14729823 0.16167009 0.17149025 0.1681175 -0.05822326 0.117711574
-0.047970362 0.040304005 0.16027188 0.047765918 0.07514124 -0.034101915 -0.0771809 0.14710738
-0.1471576 0.03893485 -0.018171454 -0.033238873 -0.15843971 -0.09495503 -0.08858205 0.03573101
0.07902729 -0.14047845 -0.05288983 -0.15850098 0.12889889 -0.14991842 -0.009266973 -0.014389057
-0.08381096 0.13275452 0.084174074 0.09909556 0.12998845 -0.07897386 0.09194126 0.1531696
-0.03128823 -0.0018161236 0.027505375 -0.15944794 -0.009854121 -0.009211393 -0.11588178 0.13881533
-0.13672687 -0.05973117 0.11355032 0.03816307 0.0831502 0.018635327 -0.1572579 -0.10399329
-0.049436968 -0.10533213 -0.09865961 -0.047430564 0.1675981 0.13447005 0.04468105 -0.09565663
-0.093593046 0.17557523 0.033116046 0.03252037 -0.089265846 -0.07518063 0.094728276 -0.0014796401
-0.007480952 -0.076897375 -0.11681238 -0.09001447 -0.15866086 0.16802849 0.036897972 0.03187434
0.14234202 0.099717006 -0.021907307 0.123285376 0.014960004 -0.16176729 0.15170902 -0.08451705
-0.112319104 -0.02896588 0.052384738 0.14436764 -0.16569324 -0.15331788 -0.101904966 -0.08866471
0.18750946 0.004176105 0.13389875 0.059414662 0.10970529 -0.070080794 0.0935409 0.072467186
0.0699816 -0.11770599 -0.0488293 0.15667246 -0.025978645 -0.12188949 -0.1312382 -0.026551524
0.09007585 -0.042951666 0.12934476 0.077686265 -0.12526016 0.011580652 0.17253663 0.11960421
-0.053478554 -0.114085585 0.056713667 0.095481545 -0.025255494 -0.13306694 0.18266869 0.09483093
00000000: 5d8c 9ebd 190d 80bd 4cc3 343e d834 2e3d
00000010: e16c 0bbe 216e 16be 43ff 1ebe 6d9d efbd
00000020: c894 b9bd 6d44 bfbd bb17 0e3e c47f 70bd
00000030: 4e2a 333e 2413 adbc e466 04be 9bfd 45bd
00000040: 7fae 7ebd 8158 cabd abbb 1fbe 0a53 873c
00000050: 9827 0abe 1028 1abd a155 edbc ea4c c0bd
00000060: 40eb af3a a90b 07be 9061 2fbd 1a97 203e
00000070: a911 2a3e 2018 c93c e06f 5a3d 331a 253e
00000080: fed2 393e 82bd 8fbd 03ea 1d3d ed95 b8bc
00000090: ecc8 d6bd 7c1e 2d3e b486 173e 59a9 7a3c
000000a0: b9e6 1a3e 7221 6a3d 5cbd 013e c826 ab3d
000000b0: 260a bd3d 5031 923d 9662 c53d 4e15 283e
000000c0: 3a58 a83d bd07 d9bd fd06 923d c14a 343e
000000d0: f417 1f3e fc5a f23d f108 4dbd 97f7 393e
000000e0: f38f 4a3d 1b71 acbd 931a 3e3b 9c74 0c3e
000000f0: 0c7a 16be 4f12 f9bc 245a 0f3e fed5 07bd
00000100: e2e6 6cbd 7bfb 16bd 7ee7 803d c0a1 febd
00000110: cc08 223d e8f4 6a3d 99df 563d d919 f03b
00000120: 455f cb3d cbf6 213b aa2f 153e 7df0 fe3d
00000130: 43ee dabd ca51 a0bc c717 193e eb91 dabb
00000140: adb5 17bd a473 62ba a5a6 01bd 6760 56bd
00000150: a416 513d d85e 253e 32a5 143d d88a de3d
00000160: 8de1 133e 72a5 cdbd f015 e2bd 2e74 f4bb
00000170: 9722 6d3d 5bc0 25bc d897 90bd 3fbe e8bd
00000180: 0cc9 713c dc3d 0e3e 8145 973c 1532 333e
00000190: b0fb 92bd a483 2f3e 9555 d8bd f06c 193e
000001a0: e485 c33c 1f71 3b3e 26b8 333e 7e80 78bd
000001b0: dcb3 e5ba 09c9 1cbd 9b35 443d fc3c 98bd
000001c0: 902e ecbc ce5b abbd 9ffc ec3d e81e 1b3e
000001d0: 7e4e 013d 1fcf e83b 5d07 fbbd c0d5 1ebe
000001e0: c19a f9bd eeb5 f9bd eea3 04be c80e bc3d
000001f0: f8da 02be e3d8 c13d 6cde 013e 4271 3a3c
00000200: 33fb 673d b946 eb3d 59d5 16be d88c 253e
00000210: 249b 2f3e fe26 2c3e 837b 6ebd c412 f13d
00000220: 927c 44bd d015 253d 501e 243e 32a6 433d
00000230: a7e3 993d 73ae 0bbd 0511 9ebd 51a3 163e
00000240: 7bb0 16be 267a 1f3d 4ddc 94bc 7c25 08bd
00000250: 053e 22be c877 c2bd 816a b5bd ae5a 123d
00000260: 0fd9 a13d 95d9 0fbe 02a3 58bd 154e 22be
00000270: 12fe 033e 3784 19be 80d4 17bc 14c0 6bbc
00000280: 15a5 abbd cdf0 073e 7563 ac3d 9df2 ca3d
00000290: b11b 053e 0cbd a1bd b34b bc3d 7ed8 1c3e
000002a0: 1628 00bd ff0a eeba f452 e13c 5246 23be
000002b0: 2e73 21bc 62eb 16bc 6d53 edbd 9b25 0e3e
000002c0: 2102 0cbe aca8 74bd 128d e83d e150 1c3d
000002d0: a74a aa3d 1da9 983c 3708 21be 6ffa d4bd
000002e0: 6b7e 4abd 5fb8 d7bd 0d0e cabd 8d46 42bd
000002f0: d69e 2b3e 84b2 093e 7a03 373d a0e7 c3bd
00000300: b6ad bfbd fec9 333e b1a4 073d 1434 053d
00000310: 03d1 b6bd 4df8 99bd e600 c23d 7cf0 c1ba
00000320: c622 f5bb 5f7c 9dbd 543b efbd 8259 b8bd
00000330: fe77 22be a90f 2c3e 5422 173d ab8e 023d
00000340: 1bc2 113e 6e38 cc3d f476 b3bc 0b7d fc3d
00000350: ce1a 753c 53a6 25be 9c59 1b3e 4617 adbd
00000360: 8f07 e6bd da49 edbc 6191 563d 1cd5 133e
00000370: 7dab 29be 5dff 1cbe 8db3 d0bd d895 b5bd
00000380: 7b02 403e b5d7 883b c11c 093e ca5c 733d
00000390: 2bad e03d 8586 8fbd 5f92 bf3d ad69 943d
000003a0: 8352 8f3d d70f f1bd 3b01 48bd bf6e 203e
000003b0: 2bd1 d4bc 32a1 f9bd 4f63 06be 9582 d9bc
000003c0: b079 b83d 16ee 2fbd f472 043e fa19 9f3d
000003d0: 3344 00be c6bc 3d3c 71ad 303e 0df3 f43d
000003e0: 540c 5bbd b4a5 e9bd 974c 683d d48b c33d
000003f0: 9ce4 cebc b342 08be 800d 3b3e b836 c23d

fc2.weight f4 [300, 400]
0.026155645 0.041160945 0.06097565 -0.029621005 -0.014685968 0.014379868 0.04819256 0.00046561516
0.039722238 -0.030446123 -0.02504966 -0.052404173 0.031632338 0.03098443 -0.028806303 0.026019756
0.04369597 -0.028216075 0.04442964 0.032245193 0.052728128 -0.040584717 -0.021215482 -0.054918636
0.040049408 -0.041103885 -0.04995503 -0.032502204 0.024424022 -0.0286598 0.023502503 -0.006700115
-0.028294172 -0.04369997 0.009991616 -0.008333642 -0.0035169092 -0.018353852 -0.008306002 0.020180404
0.056334235 0.049603328 0.0045533897 0.005489386 0.05494583 0.04634667 -0.006802637 -0.028585417
0.016999003 0.058054622 0.041696332 0.045038465 -0.036274403 -0.054215245 0.035804305 0.024099795
0.035515454 0.020724518 -0.051112257 0.01193726 -0.057100706 -0.020847794 -0.037225798 0.04834184
-0.033878032 0.033141144 0.041361883 -0.019250795 0.035737056 0.021008296 0.013711667 0.052340228
-0.01551027 0.059467666 0.0075876205 -0.05199662 -0.026006367 -0.022361843 0.06097052 -0.034839924
-0.043987814 -0.028856097 -0.01662782 0.017060438 -0.026945759 0.0064029507 0.03225254 0.05274173
-0.008484786 0.0022629313 0.008992345 0.042564955 0.0063271066 -0.04996808 -0.036322538 -0.011780219
-0.046395283 0.03390673 0.01893783 0.037180543 0.0071822423 0.002096241 -0.023583105 0.054514285
-0.009238848 -0.0033216428 -0.014515414 0.05379224 0.045286857 -0.03015397 -0.018706938 0.021338647
-0.0057829125 0.030414172 0.0029510926 -0.04793549 0.041081704 0.027493548 0.030954154 -0.028298598
-0.009534261 0.025525074 0.05208184 0.0579624 -0.00900974 0.029098686 0.008860211 0.036390197
0.013030709 0.041554883 0.037179448 0.05667891 0.009986161 -0.0038296352 -0.021446807 -0.04863307
0.048658464 0.04689537 0.05888883 -0.0066480995 0.019463627 0.059271865 -0.038776852 0.009535242
-0.009648347 -0.053018227 -0.01773842 -0.016010659 0.03719801 -0.0061508906 0.037437428 0.02235777
-0.0008489324 0.030461151 0.036950994 0.049449272 -0.02078836 -0.008262744 0.01868499 -0.029082445
0.03134967 0.029098362 -0.027552612 -0.0047062463 -0.033069983 0.04734901 0.013299286 0.04283521
0.0327272 -0.0055781407 -0.012239249 0.040261526 0.025200443 0.0085982885 -0.047142517 -0.032162752
-0.04717152 0.05136117 -0.03300263 0.04936269 -0.013698324 0.021896562 -0.021650415 -0.05423257
-0.019374628 0.014499222 -0.0063990713 -0.033573102 0.043756925 0.025361858 0.05480782 0.02296987
0.020010103 0.028050445 -0.014340208 -0.05131013 -0.036691826 0.04019147 0.03567634 0.012106133
0.0029964712 0.026699116 -0.019905062 -0.060794592 -0.037370726 -0.0076428247 -0.0026277762 0.02263112
0.009931567 -0.0077812127 -0.014256111 -0.012289308 -0.03258312 -0.040681284 -0.048621707 0.041495375
-0.002627228 0.01175547 -0.03680458 8.492969e-06 -0.023010105 -0.011577982 -0.03321655 -0.0041190493
0.04315435 0.051098052 0.057170223 0.05641064 0.0074143857 0.0067439834 -0.041105095 -0.040935915
0.009491155 -0.04556725 0.028035661 -0.026337601 -0.050137006 -0.04863345 0.018723493 0.0499101
0.045372065 -0.02923079 0.045456327 0.011179221 -0.042455245 -0.037153356 0.011932447 0.040991753
0.0033413235 0.03679214 0.05454459 0.033211116 0.042856555 -0.012428625 0.058370356 -0.042668987
00000000: 5d44 d63c 6198 283d 9ac1 793d c0a7 f2bc
00000010: 6a9d 70bc 8a99 6b3c 9065 453d cf1d f439
00000020: c9b3 223d 266a f9bc f234 cdbc c2a5 56bd
00000030: e990 013d 0fd3 fd3c 32fb ebbc 6227 d53c
00000040: 8cfa 323d 6625 e7bc dbfb 353d 8913 043d
00000050: 73f9 573d 293c 26bd 17cc adbc 5df2 60bd
00000060: d90a 243d 8c5c 28bd a59d 4cbd 0821 05bd
00000070: e314 c83c f5c7 eabc 5288 c03c a38c dbbb
00000080: 2ec9 e7bc bdfe 32bd e0b3 233c d489 08bc
00000090: f27b 66bb d15a 96bc e615 08bc 6051 a53c
000000a0: babe 663d dc2c 4b3d 9a34 953b 4fe0 b33b
000000b0: e10e 613d 01d6 3d3d a8e8 debb f72b eabc
000000c0: 7e41 8b3c afca 6d3d c6c9 2a3d 417a 383d
000000d0: 7894 14bd ce10 5ebd 89a7 123d ef6c c53c
000000e0: a778 113d 77c6 a93c 165b 51bd 7f94 433c
000000f0: 6ee2 69bd fec8 aabc 147a 18bd 1802 463d
00000100: b1c3 0abd 02bf 073d 146b 293d d8b3 9dbc
00000110: 0561 123d 9719 ac3c e6a6 603c b562 563d
00000120: ca1e 7ebc 5e94 733d 93a1 f83b 68fa 54bd
00000130: 4e0b d5bc 2f30 b7bc 39bc 793d 4fb4 0ebd
00000140: 912c 34bd 9f63 ecbc 1137 88bc 55c2 8b3c
00000150: 5abd dcbc d8cf d13b 3d1b 043d b607 583d
00000160: c603 0bbc b04d 143b a154 133c 9758 2e3d
00000170: 9e53 cf3b 54ab 4cbd f1c6 14bd d201 41bc
00000180: fb08 3ebd c9e1 0a3d 8223 9b3c a04a 183d
00000190: 0459 eb3b 1761 093b 5b31 c1bc 5f4a 5f3d
000001a0: 8a5e 17bc ebaf 59bb 0fd2 6dbc 4055 5c3d
000001b0: b67e 393d 7505 f7bc 4b3f 99bc 63ce ae3c
000001c0: 967e bdbb 2427 f93c 1e67 413b 0158 44bd
000001d0: 4a45 283d 263a e13c 9193 fd3c 76d2 e7bc
000001e0: 9735 1cbc f619 d13c c453 553d fb69 6d3d
000001f0: 979d 13bc 5e60 ee3c 6b2a 113c e30d 153d
00000200: c17e 553c 7435 2a3d 7a49 183d 2528 683d
00000210: ff9c 233c 9efa 7abb 37b1 afbc 7833 47bd
00000220: 194e 473d 5c15 403d 6a35 713d 4dd8 d9bb
00000230: 2f72 9f3c 0ec7 723d 7ad4 1ebd b439 1c3c
00000240: 1a14 1ebc a429 59bd 2a50 91bc c928 83bc
00000250: f15c 183d 698d c9bb fd57 193d a427 b73c
00000260: e48a 5eba aa89 f93c ed59 173d 528b 4a3d
00000270: 5a4c aabc 7660 07bc 4411 993c 4f3e eebc
00000280: 8368 003d b05f ee3c 04b6 e1bc db36 9abb
00000290: 6474 07bd 09f1 413d 40e5 593c f973 2f3d
000002a0: f50c 063d d6c8 b6bb 2287 48bc 45e9 243d
000002b0: 2971 ce3c d6df 0c3c 8318 41bd 17bd 03bd
000002c0: ec36 41bd 1760 523d c42d 07bd 8830 4a3d
000002d0: ef6e 60bc 6b60 b33c 365c b1bc f922 5ebd
000002e0: 8ab7 9ebc 258e 6d3c 4daf d1bb f383 09bd
000002f0: 763a 333d acc3 cf3c 2a7e 603d 4f2b bc3c
00000300: 3aec a33c 0cca e53c 31f3 6abc 922a 52bd
00000310: 2b4a 16bd d09f 243d 5b21 123d cd58 463c
00000320: 7260 443b 1bb8 da3c f10f a3bc c003 79bd
00000330: 0c12 19bd a970 fabb c536 2cbb e664 b93c
00000340: 03b8 223c 8bf9 febb 7792 69bc 1859 49bc
00000350: e175 05bd 6ba1 26bd 8e27 47bd 0ef7 293d
00000360: 922d 2cbb 049a 403c 66c0 16bd 067d 0e37
00000370: b07f bcbc 94b1 3dbc 140e 08bd 17f9 86bb
00000380: 9ec2 303d 314c 513d 532b 6a3d d80e 673d
00000390: 60f4 f23b a2fc dc3b d15d 28bd 6bac 27bd
000003a0: ca80 1b3c baa4 3abd 0bab e53c f4c1 d7bc
000003b0: 765c 4dbd de33 47bd 0362 993c 886e 4c3d
000003c0: 0fd8 393d 6975 efbc 6a30 3a3d 0d29 373c
000003d0: 8de5 2dbd 1e2e 18bd 4f80 433c f8e6 273d
000003e0: 1bfa 5a3b 5bb3 163d 266a 5f3d 6108 083d
000003f0: 5b8a 2f3d 6ea1 4bbc c115 6f3d adc5 2ebd

fc2.bias f4 [300]
0.035871115 -0.004249062 -0.0012052294 0.03889622 -0.00097141304 0.01195493 -0.03212791 0.033671867
0.043703742 0.03243839 -0.017497312 -0.03164045 -0.017730428 0.011024143 0.014630018 -0.04224915
0.0025517808 0.009332337 0.048274554 -0.0121606095 0.037041534 0.045710232 -0.03779126 0.023457844
0.03288938 -0.035984337 0.037268236 0.0047340416 0.06385347 0.049705435 0.029564619 0.005115842
0.030284584 0.011644604 -0.039161425 0.008230408 0.029359646 -0.02709781 -0.0013904355 0.052332465
0.04528464 0.022868715 -0.020923147 0.03449128 0.05328923 0.027983742 -0.022906387 -0.047197953
-0.0012987646 -0.00137466 -0.004338037 -0.011432587 -0.0062097595 0.017238736 0.021757636 -0.04214352
-0.026700545 -0.026615161 -0.02806242 -0.044640552 0.04192032 0.020820621 -0.021196838 -0.013247644
0.057331413 0.031145992 0.032576736 0.003009315 0.0041383235 -0.0016036491 0.042133074 -0.017236982
0.046123363 -0.040381532 0.056897704 -0.03217342 -0.043895938 0.04053416 -0.011962048 -0.032576516
-0.021038946 -0.02308959 -0.03338169 0.03365019 0.0072948257 -0.0024003182 0.0089997575 -0.01099191
-0.022709288 0.047873497 -0.002620686 -0.043524038 0.05205029 0.0016683615 0.011052732 0.027413713
-0.024855675 -0.0022151105 -0.010273095 0.04788414 0.009099699 0.005652425 -0.014277846 -0.0047258325
0.023103142 -0.034806754 0.008627638 0.008287786 0.022768473 0.026462866 0.025780683 0.025171954
0.061089076 -0.025843838 -0.027111964 0.007334026 0.030541226 0.048615083 0.022055484 0.04499397
-0.0029949099 -0.041547634 0.030846752 0.025408385 0.040891327 0.026353173 0.041298173 0.011223743
0.018262548 0.028297983 0.037056927 -0.012546774 0.012315348 -0.028463157 0.055055063 0.028499236
0.012292038 0.062906936 0.028316623 -0.02146418 -0.022401774 -0.030492084 -0.018370831 0.0028708111
-0.013326773 0.022765504 0.0067815734 -0.00045744886 -0.024405781 0.030707372 -0.035680126 0.027450534
0.013482742 0.034171794 -0.0189671 0.0033303732 -0.0057363017 0.023054581 -0.052486297 0.028886914
0.010285991 0.037382755 -0.022081025 0.011738438 -0.01470032 -0.030245824 0.0022585928 0.039373923
-0.0043960665 0.027504904 0.027205175 -0.046054166 -0.008989835 0.00062760216 0.042163223 -0.038111426
-0.024134345 0.014602997 -0.024683371 0.018648818 0.035323873 0.0068561747 0.032297492 -0.03804919
0.026740083 0.011908516 0.045084015 0.03738218 0.011763738 -0.009846212 -0.012069467 0.05953912
-0.026120547 0.001189145 0.056714486 0.020547487 -0.036853936 -0.0069123055 -0.0053126756 0.0430587
0.031241575 -0.026160005 -0.040135693 0.029459117 0.0030272237 0.024069596 0.04676632 -0.014182491
-0.028589128 0.0084843915 0.002057386 0.04160255 -0.03655647 0.0055468976 -0.029814886 0.054759
0.009670461 -0.010640117 0.04468817 0.05084783 -0.04145176 -0.0330781 0.022468776 -0.03469926
0.04194008 -0.0032291163 0.01821909 0.029985502 -0.048987757 0.013048811 0.0051297406 0.030222131
-0.014860316 0.04054284 0.04433859 -0.005545255 -0.031365406 0.0118487915 -0.0048386976 -0.03755802
0.023539478 0.067023635 -0.008273915 -0.049658872 0.05021136 -0.03556059 0.02357824 0.016595373
0.05983861 -0.012679513 0.0030464425 0.020366529 0.01539926 0.040339664 -0.026360044 -0.044719547
00000000: 97ed 123d b73b 8bbb caf8 9dba a551 1f3d
00000010: 6da6 7eba 9cde 433c 8e98 03bd 83eb 093d
00000020: b202 333d 1ede 043d 8656 8fbc 6b99 01bd
00000030: 673f 91bc 9b9e 343c beb2 6f3c 720d 2dbd
00000040: c73b 273b a9e6 183c 8abb 453d 4b3d 47bc
00000050: ddb8 173d a73a 3b3d 02cb 1abd aa2a c03c
00000060: 04b7 063d 5064 13bd 94a6 183d 0520 9b3b
00000070: 9cc5 823d ed97 4b3d 8031 f23c cba2 a73b
00000080: 6017 f83c 02c9 3e3c bb67 20bd d5d8 063c
00000090: a483 f03c 3afc ddbc 463f b6ba 915a 563d
000000a0: 637c 393d 2c57 bb3c 0567 abbc ba46 0d3d
000000b0: cf45 5a3d 293e e53c 2da6 bbbc a452 41bd
000000c0: 4f3b aaba ef2d b4ba 1826 8ebb bf4f 3bbc
000000d0: 3d7b cbbb 4038 8d3c 123d b23c af9e 2cbd
000000e0: 1abb dabc 0a08 dabc 29e3 e5bc 03d9 36bd
000000f0: a4b4 2b3d 0290 aa3c fea4 adbc a50c 59bc
00000100: 58d4 6a3d e125 ff3c 2f6f 053d ee37 453b
00000110: c69a 873b 8931 d2ba bb93 2c3d 9234 8dbc
00000120: daeb 3c3d 1b67 25bd 910d 693d 47c8 03bd
00000130: 3acc 33bd 2607 263d 77fc 43bc f46e 05bd
00000140: de59 acbc 6126 bdbc 3dbb 08bd c8d4 093d
00000150: 6f09 ef3b a84e 1dbb b873 133c 6917 34bc
00000160: d408 babc 0017 443d d1bf 2bbb 4346 32bd
00000170: af32 553d ecac da3a 8516 353c b992 e03c
00000180: 219e cbbc 632b 11bb 7c50 28bc 2922 443d
00000190: e716 153c fa37 b93b a0ed 69bc 28db 9abb
000001a0: cd42 bd3c 8791 0ebd f05a 0d3c 7ec9 073c
000001b0: f384 ba3c a7c8 d83c 0332 d33c 6a35 ce3c
000001c0: 8a38 7a3d 75b6 d3bc e919 debc 4552 f03b
000001d0: 9831 fa3c 9c20 473d b4ad b43c 994b 383d
000001e0: 4046 44bb da2d 2abd 54b2 fc3c 3f25 d03c
000001f0: aa7d 273d 9ce2 d73c 4628 293d cae3 373c
00000200: 579b 953c 2cd1 e73c 01c9 173d fc90 4dbc
00000210: 50c6 493c 912b e9bc 6b81 613d 3b77 e93c
00000220: 8b64 493c 5ad5 803d 43f8 e73c a6d5 afbc
00000230: ed83 b7bc 89ca f9bc 6d7e 96bc 3824 3c3b
00000240: 8a58 5abc b97e ba3c f637 de3b bfd5 efb9
00000250: a2ee c7bc 078e fb3c 5325 12bd f1df e03c
00000260: b8e6 5c3c b9f7 0b3d e460 9bbc 6442 5a3b
00000270: 96f7 bbbb f6dc bc3c dffb 56bd 40a4 ec3c
00000280: 9386 283c a91e 193d 44e3 b4bc 9452 403c
00000290: 9cd9 70bc 17c6 f7bc e604 143b 8d46 213d
000002a0: e10c 90bb f751 e13c 63dd de3c 4ba3 3cbd
000002b0: 1a4a 13bc ab85 243a 58b3 2c3d ba1a 1cbd
000002c0: 64b5 c5bc 6941 6f3c c834 cabc 68c5 983c
000002d0: c4af 103d c3a9 e03b 604a 043d 78d9 1bbd
000002e0: 050e db3c f01b 433c 04aa 383d 0f1e 193d
000002f0: b1bc 403c 0252 21bc 04bf 45bc 4bdf 733d
00000300: c2fa d5bc 16dd 9b3a 734d 683d 3453 a83c
00000310: 27f4 16bd 9f80 e2bb f415 aebb 525e 303d
00000320: 55ee ff3c 824d d6bc 5365 24bd 3f54 f13c
00000330: 6364 463b 9a2d c53c 0a8e 3f3d ae5d 68bc
00000340: bf33 eabc 1e02 0b3c 36d5 063b 6f67 2a3d
00000350: 3dbc 15bd c0c2 b53b 593e f4bc f94a 603d
00000360: da70 1e3c e353 2ebc f10a 373d d045 503d
00000370: 52c9 29bd e77c 07bd 7010 b83c d020 0ebd
00000380: 5cc9 2b3d 959f 53bb 3340 953c 28a4 f53c
00000390: 63a7 48bd aeca 553c 6217 a83b 6794 f73c
000003a0: af78 73bc 4010 263d 629c 353d f8b4 b5bb
000003b0: 0379 00bd 6f21 423c f08d 9ebb 70d6 19bd
000003c0: ddd5 c03c b043 893d 518f 07bc 1a67 4bbd
000003d0: 6daa 4d3d fba7 11bd 2727 c13c 05f3 873c
000003e0: 5519 753d bbbd 4fbc d3a6 473b b5d7 a63c
000003f0: 2e4d 7c3c 343b 253d 05f1 d7bc d82b 37bd

fc3.weight f4 [4, 300]
-0.011562454 -0.009083464 -0.006327067 -0.0026287152 -0.005917371 -0.005226136 -0.010417037 -0.00016600058
-0.009372155 -0.0031623645 -0.0155292675 -0.0049770135 -0.01320202 -0.0024032209 -0.014742357 -0.0066081756
-0.0085523715 -0.0025207342 -0.00974637 -0.008061852 -0.0043949015 -0.006068906 -0.0032060654 -0.00588127
-0.003125372 -0.005380971 -0.010065508 -0.0050990516 -0.013728647 -0.011561789 -0.01212715 -0.0072285086
-0.0052929106 -0.008563549 -0.0048155463 -0.008318716 -0.014828504 -0.013408926 -0.0120828245 -0.021647615
-0.010331436 -0.018356463 -0.0071962327 -0.013192853 -0.010951338 -0.0095594 -0.0061011827 -0.010187192
-0.012442598 -0.016609354 -0.010279587 -0.007684404 -0.006150349 -0.013006306 -0.0100296745 -0.007503228
-0.016522693 -0.014023564 -0.012400896 -0.008184832 -0.009940656 -0.009620149 -0.008695699 -0.0134854475
-0.031840414 -0.007646412 -0.0063262796 -0.0058517503 -0.0071611074 -0.009237811 -0.0060669887 -0.026082678
-0.016989918 -0.008832432 -0.011845982 -0.008871344 -0.004133947 -0.01042287 -0.005116052 -0.0058307853
-0.0158677 -0.00964866 -0.017231682 -0.018153047 -0.015356958 -0.0026848835 -0.006626656 -0.0093632275
-0.022281902 -0.008739456 -0.011496284 -0.007118843 -0.007740961 -0.008410974 -0.01816821 -0.0029855107
-0.009693857 -0.013880116 -0.018476019 -0.0045315716 -0.007934984 -0.003133237 -0.006484933 -0.020478206
-0.011005548 -0.0050056167 -0.010077239 -0.0131166745 -0.0060403296 -0.0030819587 -0.004069688 -0.0050696624
-0.02480698 -0.006124925 -0.010490467 0.00046048235 -0.0034110101 -0.01200333 -0.0063960874 -0.0053541763
-0.010985759 -0.01279977 -0.012061246 -0.0050567957 -0.008089288 -0.008145845 -0.0062036486 -0.008868714
-0.010871578 -0.006555181 -0.01573142 -0.012000768 -0.009174844 -0.009296206 -0.016815007 -0.005419804
-0.0049511194 -0.013221321 -0.0117473975 -0.0011100913 -0.012840237 -0.009719259 -0.021921208 -0.006659183
-0.010884212 -0.010816421 0.00017156056 -0.004508561 -0.0040236777 -0.007757576 -0.011644692 -0.0068190196
-0.009048504 -0.005652135 -0.008586958 -0.005493876 -0.0045885807 -0.010501587 0.00042361286 -0.018931326
-0.0128227705 -0.006647119 -0.0052175764 -0.0081750285 -0.0053168465 -0.0070264996 -0.0129326545 -0.00983009
-0.017368678 -0.016761694 -0.00077861414 -0.0075699235 -0.013373422 -0.0036027096 -0.0054789544 -0.011796547
-0.0027800354 -0.010285361 -0.010929977 -0.009674515 -0.0082303 -0.00502232 -0.0054942556 -0.004961649
-0.008646859 -0.03459677 -0.005442242 -0.009901213 -0.0070540523 0.0020252774 -0.009057297 -0.011143736
-0.0034298932 -0.0057385224 -0.009511023 -0.013435418 -0.002411591 -0.011903919 -0.015865784 -0.009686296
-0.012099449 -0.006948764 -0.005787632 -0.026334539 -0.0062121917 -0.008500388 -0.008832974 -0.020362934
-0.009697452 -0.004955543 -0.0048368154 -0.009017845 -0.0032550418 -0.002112197 -0.0036577762 -0.010734932
-0.022362636 -0.009877852 -0.011489955 -0.010459499 -0.011330861 -0.0024636264 -0.012480228 -0.0131939165
-0.0037967656 -0.0054832944 -0.009875969 -0.009946116 -0.005301552 -0.011893615 -0.007347898 -0.015785452
-0.004082608 -0.002521818 -0.00031424468 -0.01626131 -0.016951088 -0.0059768353 -0.003990711 -0.0069175824
-0.0043957154 -0.017160565 -0.00030043945 -0.0020966071 -0.01278749 -0.0050003882 -0.017581513 -0.0063518593
-0.014096229 -0.009134068 -0.01705512 -0.0122045465 -0.009047001 0.0008265131 -0.020491846 -0.0072984537
00000000: 7270 3dbc cfd2 14bc 4953 cfbb 8646 2cbb
00000010: 81e6 c1bb 0240 abbb 38ac 2abc 7110 2eb9
00000020: ab8d 19bc ac3f 4fbb 786e 7ebc 3716 a3bb
00000030: 494d 58bc 5b7f 1dbb ed89 71bc 6589 d8bb
00000040: 3f1f 0cbc e732 25bb 3daf 1fbc dc15 04bc
00000050: 1b03 90bb acdd c6bb da1c 52bb abb7 c0bb
00000060: 0bd3 4cbb db52 b0bb cde9 24bc f215 a7bb
00000070: 1eee 60bc a86d 3dbc f4b0 46bc 20dd ecbb
00000080: 2770 adbb 214e 0cbc bbcb 9dbb 394b 08bc
00000090: 41f3 72bc 1db1 5bbc 0af7 45bc 5756 b1bc
000000a0: 2f45 29bc 4b60 96bc 60ce ebbb d626 58bc
000000b0: 3e6d 33bc 089f 1cbc 6eec c7bb 2ee8 26bc
000000c0: 0adc 4bbc 5710 88bc b66b 28bc 74cd fbbb
000000d0: de88 c9bb 6718 55bc 8153 24bc a3dd f5bb
000000e0: 995a 87bc 17c3 65bc 212d 4bbc ac19 06bc
000000f0: 22de 22bc d49d 1dbc 6878 0ebc 11f2 5cbc
00000100: 186b 02bd c18e fabb ae4c cfbb 0ac0 bfbb
00000110: b9a7 eabb 305a 17bc 97cd c6bb 57ab d5bc
00000120: 712e 8bbc e8b5 10bc a615 42bc 1d59 11bc
00000130: 1076 87bb afc4 2abc 8ea4 a7bb 2c10 bfbb
00000140: fbfc 81bc 6a15 1ebc 7529 8dbc b3b5 94bc
00000150: c09b 7bbc dff4 2fbb 6b24 d9bb 3968 19bc
00000160: 8988 b6bc ef2f 0fbc e95a 3cbc 2f45 e9bb
00000170: e3a7 fdbb 2fce 09bc 7fd5 94bc 8fa8 43bb
00000180: fcd2 1ebc 6d69 63bc 055b 97bc 947d 94bb
00000190: bc01 02bc fe56 4dbb 907f d4bb e9c1 a7bc
000001a0: 9d50 34bc 2806 a4bb 011b 25bc 52e7 56bc
000001b0: f5ed c5bb b0fa 49bb 045b 85bb 691f a6bb
000001c0: 0238 cbbc 98b3 c8bb 35e0 2bbc e56c f139
000001d0: 418b 5fbb 9da9 44bc 4596 d1bb 1672 afbb
000001e0: 9dfd 33bc 20b6 51bc 889c 45bc 7ab3 a5bb
000001f0: ef88 04bc 2676 05bc fa47 cbbb 154e 11bc
00000200: b41e 32bc d8cc d6bb 2edf 80bc df9e 44bc
00000210: 1652 16bc 1d4f 18bc a0bf 89bc 9c98 b1bb
00000220: 003d a2bb 3d9e 58bc 2878 40bc 7c80 91ba
00000230: db5f 52bc 873d 1fbc 1b94 b3bc 4735 dabb
00000240: b253 32bc 5c37 31bc f0e4 3339 8dbc 93bb
00000250: 0ed9 83bb 4433 febb 61c9 3ebc 1572 dfbb
00000260: 2d40 14bc 8b35 b9bb 50b0 0cbc f905 b4bb
00000270: ce5b 96bb d90e 2cbc 5b18 de39 de15 9bbc
00000280: 9916 52bc 13d0 d9bb 34f8 aabb 8ef0 05bc
00000290: f138 aebb 8d3e e6bb 7ce3 53bc 630e 21bc
000002a0: c248 8ebc d24f 89bc e91b 4cba 1f0d f8bb
000002b0: 331c 5bbc 701b 6cbb cd88 b3bb 4e46 41bc
000002c0: 4131 36bb ee83 28bc a513 33bc db81 1ebc
000002d0: 61d8 06bc 4692 a4bb 2809 b4bb 5495 a2bb
000002e0: 8eab 0dbc 58b5 0dbd d654 b2bb b338 22bc
000002f0: ae25 e7bb 84ba 043b 0f65 14bc 3794 36bc
00000300: 0fc8 60bb 370a bcbb 1fd4 1bbc 3a20 5cbc
00000310: c80b 1ebb a808 43bc f6f8 81bc 45b3 1ebc
00000320: c43c 46bc 75b2 e3bb 2da6 bdbb 88bb d7bc
00000330: a48f cbbb 3645 0bbc 2eb8 10bc 2bd0 a6bc
00000340: 10e2 1ebc 1c62 a2bb 267e 9ebb 95bf 13bc
00000350: 8a52 55bb c96c 0abb 4db7 6fbb 91e1 2fbc
00000360: d931 b7bc b7d6 21bc 5d40 3cbc 525e 2bbc
00000370: 13a5 39bc cb74 21bb df79 4cbc 4c2b 58bc
00000380: 28d3 78bb 35ad b3bb d1ce 21bc 09f5 22bc
00000390: a4b8 adbb 70dd 42bc a3c6 f0bb 7e50 81bc
000003a0: 66c7 85bb 1645 25bb 35c1 a4b9 7036 85bc
000003b0: 02dd 8abc 54d9 c3bb 83c4 82bb e3ac e2bb
000003c0: ef09 90bb 5094 8cbc 4d84 9db9 3b67 09bb
000003d0: 9f82 51bc 4cda a3bb 1b07 90bc 4223 d0bb
000003e0: dff3 66bc 0fa7 15bc 2eb7 8bbc 94f5 47bc
000003f0: df39 14bc 5baa 583a 84de a7bc de27 efbb

fc3.bias f4 [4]
-0.026338583 0.0040565245 0.03264368 0.04563174
00000000: 03c4 d7bc 98ec 843b 61b5 053d 59e8 3a3d
